<?xml version="1.0"?>
<net name="main_graph" version="11">
	<layers>
		<layer id="0" name="onnx::Cast_0" type="Parameter" version="opset1">
			<data shape="1,1,193,1032" element_type="i64" />
			<rt_info>
				<attribute name="old_api_map_element_type" version="0" value="i32" />
			</rt_info>
			<output>
				<port id="0" precision="I64" names="onnx::Cast_0">
					<dim>1</dim>
					<dim>1</dim>
					<dim>193</dim>
					<dim>1032</dim>
				</port>
			</output>
		</layer>
		<layer id="1" name="Constant_1442_compressed" type="Const" version="opset1">
			<data element_type="f16" shape="1, 1, 1" offset="0" size="2" />
			<output>
				<port id="0" precision="FP16">
					<dim>1</dim>
					<dim>1</dim>
					<dim>1</dim>
				</port>
			</output>
		</layer>
		<layer id="2" name="Constant_1442" type="Convert" version="opset1">
			<data destination_type="f32" />
			<rt_info>
				<attribute name="decompression" version="0" />
			</rt_info>
			<input>
				<port id="0" precision="FP16">
					<dim>1</dim>
					<dim>1</dim>
					<dim>1</dim>
				</port>
			</input>
			<output>
				<port id="1" precision="FP32">
					<dim>1</dim>
					<dim>1</dim>
					<dim>1</dim>
				</port>
			</output>
		</layer>
		<layer id="3" name="/Cast" type="Convert" version="opset1">
			<data destination_type="f32" />
			<input>
				<port id="0" precision="I64">
					<dim>1</dim>
					<dim>1</dim>
					<dim>193</dim>
					<dim>1032</dim>
				</port>
			</input>
			<output>
				<port id="1" precision="FP32" names="/Cast_output_0">
					<dim>1</dim>
					<dim>1</dim>
					<dim>193</dim>
					<dim>1032</dim>
				</port>
			</output>
		</layer>
		<layer id="4" name="Constant_1441_compressed" type="Const" version="opset1">
			<data element_type="f16" shape="1, 1, 1, 1" offset="2" size="2" />
			<output>
				<port id="0" precision="FP16">
					<dim>1</dim>
					<dim>1</dim>
					<dim>1</dim>
					<dim>1</dim>
				</port>
			</output>
		</layer>
		<layer id="5" name="Constant_1441" type="Convert" version="opset1">
			<data destination_type="f32" />
			<rt_info>
				<attribute name="decompression" version="0" />
			</rt_info>
			<input>
				<port id="0" precision="FP16">
					<dim>1</dim>
					<dim>1</dim>
					<dim>1</dim>
					<dim>1</dim>
				</port>
			</input>
			<output>
				<port id="1" precision="FP32">
					<dim>1</dim>
					<dim>1</dim>
					<dim>1</dim>
					<dim>1</dim>
				</port>
			</output>
		</layer>
		<layer id="6" name="/Div" type="Multiply" version="opset1">
			<data auto_broadcast="numpy" />
			<input>
				<port id="0" precision="FP32">
					<dim>1</dim>
					<dim>1</dim>
					<dim>193</dim>
					<dim>1032</dim>
				</port>
				<port id="1" precision="FP32">
					<dim>1</dim>
					<dim>1</dim>
					<dim>1</dim>
					<dim>1</dim>
				</port>
			</input>
			<output>
				<port id="2" precision="FP32" names="/Cast_1_output_0,/Div_output_0">
					<dim>1</dim>
					<dim>1</dim>
					<dim>193</dim>
					<dim>1032</dim>
				</port>
			</output>
		</layer>
		<layer id="7" name="onnx::Conv_144_compressed" type="Const" version="opset1">
			<data element_type="f16" shape="16, 1, 3, 3" offset="4" size="288" />
			<output>
				<port id="0" precision="FP16">
					<dim>16</dim>
					<dim>1</dim>
					<dim>3</dim>
					<dim>3</dim>
				</port>
			</output>
		</layer>
		<layer id="8" name="onnx::Conv_144" type="Convert" version="opset1">
			<data destination_type="f32" />
			<rt_info>
				<attribute name="decompression" version="0" />
			</rt_info>
			<input>
				<port id="0" precision="FP16">
					<dim>16</dim>
					<dim>1</dim>
					<dim>3</dim>
					<dim>3</dim>
				</port>
			</input>
			<output>
				<port id="1" precision="FP32" names="onnx::Conv_144">
					<dim>16</dim>
					<dim>1</dim>
					<dim>3</dim>
					<dim>3</dim>
				</port>
			</output>
		</layer>
		<layer id="9" name="/model/model.0/model.0.0/Conv/WithoutBiases" type="Convolution" version="opset1">
			<data strides="2, 2" dilations="1, 1" pads_begin="1, 1" pads_end="1, 1" auto_pad="explicit" />
			<input>
				<port id="0" precision="FP32">
					<dim>1</dim>
					<dim>1</dim>
					<dim>193</dim>
					<dim>1032</dim>
				</port>
				<port id="1" precision="FP32">
					<dim>16</dim>
					<dim>1</dim>
					<dim>3</dim>
					<dim>3</dim>
				</port>
			</input>
			<output>
				<port id="2" precision="FP32">
					<dim>1</dim>
					<dim>16</dim>
					<dim>97</dim>
					<dim>516</dim>
				</port>
			</output>
		</layer>
		<layer id="10" name="Reshape_39_compressed" type="Const" version="opset1">
			<data element_type="f16" shape="1, 16, 1, 1" offset="292" size="32" />
			<output>
				<port id="0" precision="FP16">
					<dim>1</dim>
					<dim>16</dim>
					<dim>1</dim>
					<dim>1</dim>
				</port>
			</output>
		</layer>
		<layer id="11" name="Reshape_39" type="Convert" version="opset1">
			<data destination_type="f32" />
			<rt_info>
				<attribute name="decompression" version="0" />
			</rt_info>
			<input>
				<port id="0" precision="FP16">
					<dim>1</dim>
					<dim>16</dim>
					<dim>1</dim>
					<dim>1</dim>
				</port>
			</input>
			<output>
				<port id="1" precision="FP32">
					<dim>1</dim>
					<dim>16</dim>
					<dim>1</dim>
					<dim>1</dim>
				</port>
			</output>
		</layer>
		<layer id="12" name="/model/model.0/model.0.0/Conv" type="Add" version="opset1">
			<data auto_broadcast="numpy" />
			<input>
				<port id="0" precision="FP32">
					<dim>1</dim>
					<dim>16</dim>
					<dim>97</dim>
					<dim>516</dim>
				</port>
				<port id="1" precision="FP32">
					<dim>1</dim>
					<dim>16</dim>
					<dim>1</dim>
					<dim>1</dim>
				</port>
			</input>
			<output>
				<port id="2" precision="FP32" names="/model/model.0/model.0.0/Conv_output_0">
					<dim>1</dim>
					<dim>16</dim>
					<dim>97</dim>
					<dim>516</dim>
				</port>
			</output>
		</layer>
		<layer id="13" name="Constant_43_compressed" type="Const" version="opset1">
			<data element_type="f16" shape="1" offset="324" size="2" />
			<output>
				<port id="0" precision="FP16">
					<dim>1</dim>
				</port>
			</output>
		</layer>
		<layer id="14" name="Constant_43" type="Convert" version="opset1">
			<data destination_type="f32" />
			<rt_info>
				<attribute name="decompression" version="0" />
			</rt_info>
			<input>
				<port id="0" precision="FP16">
					<dim>1</dim>
				</port>
			</input>
			<output>
				<port id="1" precision="FP32">
					<dim>1</dim>
				</port>
			</output>
		</layer>
		<layer id="15" name="/model/model.0/model.0.2/LeakyRelu" type="PReLU" version="opset1">
			<input>
				<port id="0" precision="FP32">
					<dim>1</dim>
					<dim>16</dim>
					<dim>97</dim>
					<dim>516</dim>
				</port>
				<port id="1" precision="FP32">
					<dim>1</dim>
				</port>
			</input>
			<output>
				<port id="2" precision="FP32" names="/model/model.0/model.0.2/LeakyRelu_output_0">
					<dim>1</dim>
					<dim>16</dim>
					<dim>97</dim>
					<dim>516</dim>
				</port>
			</output>
		</layer>
		<layer id="16" name="model.1.0.weight_compressed" type="Const" version="opset1">
			<data element_type="f16" shape="32, 16, 3, 3" offset="326" size="9216" />
			<output>
				<port id="0" precision="FP16">
					<dim>32</dim>
					<dim>16</dim>
					<dim>3</dim>
					<dim>3</dim>
				</port>
			</output>
		</layer>
		<layer id="17" name="model.1.0.weight" type="Convert" version="opset1">
			<data destination_type="f32" />
			<rt_info>
				<attribute name="decompression" version="0" />
			</rt_info>
			<input>
				<port id="0" precision="FP16">
					<dim>32</dim>
					<dim>16</dim>
					<dim>3</dim>
					<dim>3</dim>
				</port>
			</input>
			<output>
				<port id="1" precision="FP32" names="model.1.0.weight">
					<dim>32</dim>
					<dim>16</dim>
					<dim>3</dim>
					<dim>3</dim>
				</port>
			</output>
		</layer>
		<layer id="18" name="/model/model.1/model.1.0/Conv/WithoutBiases" type="Convolution" version="opset1">
			<data strides="1, 1" dilations="1, 1" pads_begin="1, 1" pads_end="1, 1" auto_pad="explicit" />
			<input>
				<port id="0" precision="FP32">
					<dim>1</dim>
					<dim>16</dim>
					<dim>97</dim>
					<dim>516</dim>
				</port>
				<port id="1" precision="FP32">
					<dim>32</dim>
					<dim>16</dim>
					<dim>3</dim>
					<dim>3</dim>
				</port>
			</input>
			<output>
				<port id="2" precision="FP32">
					<dim>1</dim>
					<dim>32</dim>
					<dim>97</dim>
					<dim>516</dim>
				</port>
			</output>
		</layer>
		<layer id="19" name="Reshape_56_compressed" type="Const" version="opset1">
			<data element_type="f16" shape="1, 32, 1, 1" offset="9542" size="64" />
			<output>
				<port id="0" precision="FP16">
					<dim>1</dim>
					<dim>32</dim>
					<dim>1</dim>
					<dim>1</dim>
				</port>
			</output>
		</layer>
		<layer id="20" name="Reshape_56" type="Convert" version="opset1">
			<data destination_type="f32" />
			<rt_info>
				<attribute name="decompression" version="0" />
			</rt_info>
			<input>
				<port id="0" precision="FP16">
					<dim>1</dim>
					<dim>32</dim>
					<dim>1</dim>
					<dim>1</dim>
				</port>
			</input>
			<output>
				<port id="1" precision="FP32">
					<dim>1</dim>
					<dim>32</dim>
					<dim>1</dim>
					<dim>1</dim>
				</port>
			</output>
		</layer>
		<layer id="21" name="/model/model.1/model.1.0/Conv" type="Add" version="opset1">
			<data auto_broadcast="numpy" />
			<input>
				<port id="0" precision="FP32">
					<dim>1</dim>
					<dim>32</dim>
					<dim>97</dim>
					<dim>516</dim>
				</port>
				<port id="1" precision="FP32">
					<dim>1</dim>
					<dim>32</dim>
					<dim>1</dim>
					<dim>1</dim>
				</port>
			</input>
			<output>
				<port id="2" precision="FP32" names="/model/model.1/model.1.0/Conv_output_0">
					<dim>1</dim>
					<dim>32</dim>
					<dim>97</dim>
					<dim>516</dim>
				</port>
			</output>
		</layer>
		<layer id="22" name="Constant_60_compressed" type="Const" version="opset1">
			<data element_type="f16" shape="1" offset="324" size="2" />
			<output>
				<port id="0" precision="FP16">
					<dim>1</dim>
				</port>
			</output>
		</layer>
		<layer id="23" name="Constant_60" type="Convert" version="opset1">
			<data destination_type="f32" />
			<rt_info>
				<attribute name="decompression" version="0" />
			</rt_info>
			<input>
				<port id="0" precision="FP16">
					<dim>1</dim>
				</port>
			</input>
			<output>
				<port id="1" precision="FP32">
					<dim>1</dim>
				</port>
			</output>
		</layer>
		<layer id="24" name="/model/model.1/model.1.1/LeakyRelu" type="PReLU" version="opset1">
			<input>
				<port id="0" precision="FP32">
					<dim>1</dim>
					<dim>32</dim>
					<dim>97</dim>
					<dim>516</dim>
				</port>
				<port id="1" precision="FP32">
					<dim>1</dim>
				</port>
			</input>
			<output>
				<port id="2" precision="FP32" names="/model/model.1/model.1.1/LeakyRelu_output_0">
					<dim>1</dim>
					<dim>32</dim>
					<dim>97</dim>
					<dim>516</dim>
				</port>
			</output>
		</layer>
		<layer id="25" name="model.2.0.weight_compressed" type="Const" version="opset1">
			<data element_type="f16" shape="64, 32, 3, 3" offset="9606" size="36864" />
			<output>
				<port id="0" precision="FP16">
					<dim>64</dim>
					<dim>32</dim>
					<dim>3</dim>
					<dim>3</dim>
				</port>
			</output>
		</layer>
		<layer id="26" name="model.2.0.weight" type="Convert" version="opset1">
			<data destination_type="f32" />
			<rt_info>
				<attribute name="decompression" version="0" />
			</rt_info>
			<input>
				<port id="0" precision="FP16">
					<dim>64</dim>
					<dim>32</dim>
					<dim>3</dim>
					<dim>3</dim>
				</port>
			</input>
			<output>
				<port id="1" precision="FP32" names="model.2.0.weight">
					<dim>64</dim>
					<dim>32</dim>
					<dim>3</dim>
					<dim>3</dim>
				</port>
			</output>
		</layer>
		<layer id="27" name="/model/model.2/model.2.0/Conv/WithoutBiases" type="Convolution" version="opset1">
			<data strides="2, 2" dilations="1, 1" pads_begin="1, 1" pads_end="1, 1" auto_pad="explicit" />
			<input>
				<port id="0" precision="FP32">
					<dim>1</dim>
					<dim>32</dim>
					<dim>97</dim>
					<dim>516</dim>
				</port>
				<port id="1" precision="FP32">
					<dim>64</dim>
					<dim>32</dim>
					<dim>3</dim>
					<dim>3</dim>
				</port>
			</input>
			<output>
				<port id="2" precision="FP32">
					<dim>1</dim>
					<dim>64</dim>
					<dim>49</dim>
					<dim>258</dim>
				</port>
			</output>
		</layer>
		<layer id="28" name="Reshape_73_compressed" type="Const" version="opset1">
			<data element_type="f16" shape="1, 64, 1, 1" offset="46470" size="128" />
			<output>
				<port id="0" precision="FP16">
					<dim>1</dim>
					<dim>64</dim>
					<dim>1</dim>
					<dim>1</dim>
				</port>
			</output>
		</layer>
		<layer id="29" name="Reshape_73" type="Convert" version="opset1">
			<data destination_type="f32" />
			<rt_info>
				<attribute name="decompression" version="0" />
			</rt_info>
			<input>
				<port id="0" precision="FP16">
					<dim>1</dim>
					<dim>64</dim>
					<dim>1</dim>
					<dim>1</dim>
				</port>
			</input>
			<output>
				<port id="1" precision="FP32">
					<dim>1</dim>
					<dim>64</dim>
					<dim>1</dim>
					<dim>1</dim>
				</port>
			</output>
		</layer>
		<layer id="30" name="/model/model.2/model.2.0/Conv" type="Add" version="opset1">
			<data auto_broadcast="numpy" />
			<input>
				<port id="0" precision="FP32">
					<dim>1</dim>
					<dim>64</dim>
					<dim>49</dim>
					<dim>258</dim>
				</port>
				<port id="1" precision="FP32">
					<dim>1</dim>
					<dim>64</dim>
					<dim>1</dim>
					<dim>1</dim>
				</port>
			</input>
			<output>
				<port id="2" precision="FP32" names="/model/model.2/model.2.0/Conv_output_0">
					<dim>1</dim>
					<dim>64</dim>
					<dim>49</dim>
					<dim>258</dim>
				</port>
			</output>
		</layer>
		<layer id="31" name="Constant_77_compressed" type="Const" version="opset1">
			<data element_type="f16" shape="1" offset="324" size="2" />
			<output>
				<port id="0" precision="FP16">
					<dim>1</dim>
				</port>
			</output>
		</layer>
		<layer id="32" name="Constant_77" type="Convert" version="opset1">
			<data destination_type="f32" />
			<rt_info>
				<attribute name="decompression" version="0" />
			</rt_info>
			<input>
				<port id="0" precision="FP16">
					<dim>1</dim>
				</port>
			</input>
			<output>
				<port id="1" precision="FP32">
					<dim>1</dim>
				</port>
			</output>
		</layer>
		<layer id="33" name="/model/model.2/model.2.1/LeakyRelu" type="PReLU" version="opset1">
			<input>
				<port id="0" precision="FP32">
					<dim>1</dim>
					<dim>64</dim>
					<dim>49</dim>
					<dim>258</dim>
				</port>
				<port id="1" precision="FP32">
					<dim>1</dim>
				</port>
			</input>
			<output>
				<port id="2" precision="FP32" names="/model/model.2/model.2.1/LeakyRelu_output_0">
					<dim>1</dim>
					<dim>64</dim>
					<dim>49</dim>
					<dim>258</dim>
				</port>
			</output>
		</layer>
		<layer id="34" name="model.3.0.weight_compressed" type="Const" version="opset1">
			<data element_type="f16" shape="128, 64, 3, 3" offset="46598" size="147456" />
			<output>
				<port id="0" precision="FP16">
					<dim>128</dim>
					<dim>64</dim>
					<dim>3</dim>
					<dim>3</dim>
				</port>
			</output>
		</layer>
		<layer id="35" name="model.3.0.weight" type="Convert" version="opset1">
			<data destination_type="f32" />
			<rt_info>
				<attribute name="decompression" version="0" />
			</rt_info>
			<input>
				<port id="0" precision="FP16">
					<dim>128</dim>
					<dim>64</dim>
					<dim>3</dim>
					<dim>3</dim>
				</port>
			</input>
			<output>
				<port id="1" precision="FP32" names="model.3.0.weight">
					<dim>128</dim>
					<dim>64</dim>
					<dim>3</dim>
					<dim>3</dim>
				</port>
			</output>
		</layer>
		<layer id="36" name="/model/model.3/model.3.0/Conv/WithoutBiases" type="Convolution" version="opset1">
			<data strides="1, 1" dilations="1, 1" pads_begin="1, 1" pads_end="1, 1" auto_pad="explicit" />
			<input>
				<port id="0" precision="FP32">
					<dim>1</dim>
					<dim>64</dim>
					<dim>49</dim>
					<dim>258</dim>
				</port>
				<port id="1" precision="FP32">
					<dim>128</dim>
					<dim>64</dim>
					<dim>3</dim>
					<dim>3</dim>
				</port>
			</input>
			<output>
				<port id="2" precision="FP32">
					<dim>1</dim>
					<dim>128</dim>
					<dim>49</dim>
					<dim>258</dim>
				</port>
			</output>
		</layer>
		<layer id="37" name="Reshape_90_compressed" type="Const" version="opset1">
			<data element_type="f16" shape="1, 128, 1, 1" offset="194054" size="256" />
			<output>
				<port id="0" precision="FP16">
					<dim>1</dim>
					<dim>128</dim>
					<dim>1</dim>
					<dim>1</dim>
				</port>
			</output>
		</layer>
		<layer id="38" name="Reshape_90" type="Convert" version="opset1">
			<data destination_type="f32" />
			<rt_info>
				<attribute name="decompression" version="0" />
			</rt_info>
			<input>
				<port id="0" precision="FP16">
					<dim>1</dim>
					<dim>128</dim>
					<dim>1</dim>
					<dim>1</dim>
				</port>
			</input>
			<output>
				<port id="1" precision="FP32">
					<dim>1</dim>
					<dim>128</dim>
					<dim>1</dim>
					<dim>1</dim>
				</port>
			</output>
		</layer>
		<layer id="39" name="/model/model.3/model.3.0/Conv" type="Add" version="opset1">
			<data auto_broadcast="numpy" />
			<input>
				<port id="0" precision="FP32">
					<dim>1</dim>
					<dim>128</dim>
					<dim>49</dim>
					<dim>258</dim>
				</port>
				<port id="1" precision="FP32">
					<dim>1</dim>
					<dim>128</dim>
					<dim>1</dim>
					<dim>1</dim>
				</port>
			</input>
			<output>
				<port id="2" precision="FP32" names="/model/model.3/model.3.0/Conv_output_0">
					<dim>1</dim>
					<dim>128</dim>
					<dim>49</dim>
					<dim>258</dim>
				</port>
			</output>
		</layer>
		<layer id="40" name="Constant_94_compressed" type="Const" version="opset1">
			<data element_type="f16" shape="1" offset="324" size="2" />
			<output>
				<port id="0" precision="FP16">
					<dim>1</dim>
				</port>
			</output>
		</layer>
		<layer id="41" name="Constant_94" type="Convert" version="opset1">
			<data destination_type="f32" />
			<rt_info>
				<attribute name="decompression" version="0" />
			</rt_info>
			<input>
				<port id="0" precision="FP16">
					<dim>1</dim>
				</port>
			</input>
			<output>
				<port id="1" precision="FP32">
					<dim>1</dim>
				</port>
			</output>
		</layer>
		<layer id="42" name="/model/model.3/model.3.1/LeakyRelu" type="PReLU" version="opset1">
			<input>
				<port id="0" precision="FP32">
					<dim>1</dim>
					<dim>128</dim>
					<dim>49</dim>
					<dim>258</dim>
				</port>
				<port id="1" precision="FP32">
					<dim>1</dim>
				</port>
			</input>
			<output>
				<port id="2" precision="FP32" names="/model/model.3/model.3.1/LeakyRelu_output_0">
					<dim>1</dim>
					<dim>128</dim>
					<dim>49</dim>
					<dim>258</dim>
				</port>
			</output>
		</layer>
		<layer id="43" name="onnx::Conv_147_compressed" type="Const" version="opset1">
			<data element_type="f16" shape="128, 128, 3, 3" offset="194310" size="294912" />
			<output>
				<port id="0" precision="FP16">
					<dim>128</dim>
					<dim>128</dim>
					<dim>3</dim>
					<dim>3</dim>
				</port>
			</output>
		</layer>
		<layer id="44" name="onnx::Conv_147" type="Convert" version="opset1">
			<data destination_type="f32" />
			<rt_info>
				<attribute name="decompression" version="0" />
			</rt_info>
			<input>
				<port id="0" precision="FP16">
					<dim>128</dim>
					<dim>128</dim>
					<dim>3</dim>
					<dim>3</dim>
				</port>
			</input>
			<output>
				<port id="1" precision="FP32" names="onnx::Conv_147">
					<dim>128</dim>
					<dim>128</dim>
					<dim>3</dim>
					<dim>3</dim>
				</port>
			</output>
		</layer>
		<layer id="45" name="/model/model.4/model.4.0/Conv/WithoutBiases" type="Convolution" version="opset1">
			<data strides="2, 2" dilations="1, 1" pads_begin="1, 1" pads_end="1, 1" auto_pad="explicit" />
			<input>
				<port id="0" precision="FP32">
					<dim>1</dim>
					<dim>128</dim>
					<dim>49</dim>
					<dim>258</dim>
				</port>
				<port id="1" precision="FP32">
					<dim>128</dim>
					<dim>128</dim>
					<dim>3</dim>
					<dim>3</dim>
				</port>
			</input>
			<output>
				<port id="2" precision="FP32">
					<dim>1</dim>
					<dim>128</dim>
					<dim>25</dim>
					<dim>129</dim>
				</port>
			</output>
		</layer>
		<layer id="46" name="Reshape_107_compressed" type="Const" version="opset1">
			<data element_type="f16" shape="1, 128, 1, 1" offset="489222" size="256" />
			<output>
				<port id="0" precision="FP16">
					<dim>1</dim>
					<dim>128</dim>
					<dim>1</dim>
					<dim>1</dim>
				</port>
			</output>
		</layer>
		<layer id="47" name="Reshape_107" type="Convert" version="opset1">
			<data destination_type="f32" />
			<rt_info>
				<attribute name="decompression" version="0" />
			</rt_info>
			<input>
				<port id="0" precision="FP16">
					<dim>1</dim>
					<dim>128</dim>
					<dim>1</dim>
					<dim>1</dim>
				</port>
			</input>
			<output>
				<port id="1" precision="FP32">
					<dim>1</dim>
					<dim>128</dim>
					<dim>1</dim>
					<dim>1</dim>
				</port>
			</output>
		</layer>
		<layer id="48" name="/model/model.4/model.4.0/Conv" type="Add" version="opset1">
			<data auto_broadcast="numpy" />
			<input>
				<port id="0" precision="FP32">
					<dim>1</dim>
					<dim>128</dim>
					<dim>25</dim>
					<dim>129</dim>
				</port>
				<port id="1" precision="FP32">
					<dim>1</dim>
					<dim>128</dim>
					<dim>1</dim>
					<dim>1</dim>
				</port>
			</input>
			<output>
				<port id="2" precision="FP32" names="/model/model.4/model.4.0/Conv_output_0">
					<dim>1</dim>
					<dim>128</dim>
					<dim>25</dim>
					<dim>129</dim>
				</port>
			</output>
		</layer>
		<layer id="49" name="Constant_111_compressed" type="Const" version="opset1">
			<data element_type="f16" shape="1" offset="324" size="2" />
			<output>
				<port id="0" precision="FP16">
					<dim>1</dim>
				</port>
			</output>
		</layer>
		<layer id="50" name="Constant_111" type="Convert" version="opset1">
			<data destination_type="f32" />
			<rt_info>
				<attribute name="decompression" version="0" />
			</rt_info>
			<input>
				<port id="0" precision="FP16">
					<dim>1</dim>
				</port>
			</input>
			<output>
				<port id="1" precision="FP32">
					<dim>1</dim>
				</port>
			</output>
		</layer>
		<layer id="51" name="/model/model.4/model.4.2/LeakyRelu" type="PReLU" version="opset1">
			<input>
				<port id="0" precision="FP32">
					<dim>1</dim>
					<dim>128</dim>
					<dim>25</dim>
					<dim>129</dim>
				</port>
				<port id="1" precision="FP32">
					<dim>1</dim>
				</port>
			</input>
			<output>
				<port id="2" precision="FP32" names="/model/model.4/model.4.2/LeakyRelu_output_0">
					<dim>1</dim>
					<dim>128</dim>
					<dim>25</dim>
					<dim>129</dim>
				</port>
			</output>
		</layer>
		<layer id="52" name="onnx::Conv_150_compressed" type="Const" version="opset1">
			<data element_type="f16" shape="128, 128, 3, 3" offset="489478" size="294912" />
			<output>
				<port id="0" precision="FP16">
					<dim>128</dim>
					<dim>128</dim>
					<dim>3</dim>
					<dim>3</dim>
				</port>
			</output>
		</layer>
		<layer id="53" name="onnx::Conv_150" type="Convert" version="opset1">
			<data destination_type="f32" />
			<rt_info>
				<attribute name="decompression" version="0" />
			</rt_info>
			<input>
				<port id="0" precision="FP16">
					<dim>128</dim>
					<dim>128</dim>
					<dim>3</dim>
					<dim>3</dim>
				</port>
			</input>
			<output>
				<port id="1" precision="FP32" names="onnx::Conv_150">
					<dim>128</dim>
					<dim>128</dim>
					<dim>3</dim>
					<dim>3</dim>
				</port>
			</output>
		</layer>
		<layer id="54" name="/model/model.5/model.5.0/Conv/WithoutBiases" type="Convolution" version="opset1">
			<data strides="1, 1" dilations="1, 1" pads_begin="1, 1" pads_end="1, 1" auto_pad="explicit" />
			<input>
				<port id="0" precision="FP32">
					<dim>1</dim>
					<dim>128</dim>
					<dim>25</dim>
					<dim>129</dim>
				</port>
				<port id="1" precision="FP32">
					<dim>128</dim>
					<dim>128</dim>
					<dim>3</dim>
					<dim>3</dim>
				</port>
			</input>
			<output>
				<port id="2" precision="FP32">
					<dim>1</dim>
					<dim>128</dim>
					<dim>25</dim>
					<dim>129</dim>
				</port>
			</output>
		</layer>
		<layer id="55" name="Reshape_124_compressed" type="Const" version="opset1">
			<data element_type="f16" shape="1, 128, 1, 1" offset="784390" size="256" />
			<output>
				<port id="0" precision="FP16">
					<dim>1</dim>
					<dim>128</dim>
					<dim>1</dim>
					<dim>1</dim>
				</port>
			</output>
		</layer>
		<layer id="56" name="Reshape_124" type="Convert" version="opset1">
			<data destination_type="f32" />
			<rt_info>
				<attribute name="decompression" version="0" />
			</rt_info>
			<input>
				<port id="0" precision="FP16">
					<dim>1</dim>
					<dim>128</dim>
					<dim>1</dim>
					<dim>1</dim>
				</port>
			</input>
			<output>
				<port id="1" precision="FP32">
					<dim>1</dim>
					<dim>128</dim>
					<dim>1</dim>
					<dim>1</dim>
				</port>
			</output>
		</layer>
		<layer id="57" name="/model/model.5/model.5.0/Conv" type="Add" version="opset1">
			<data auto_broadcast="numpy" />
			<input>
				<port id="0" precision="FP32">
					<dim>1</dim>
					<dim>128</dim>
					<dim>25</dim>
					<dim>129</dim>
				</port>
				<port id="1" precision="FP32">
					<dim>1</dim>
					<dim>128</dim>
					<dim>1</dim>
					<dim>1</dim>
				</port>
			</input>
			<output>
				<port id="2" precision="FP32" names="/model/model.5/model.5.0/Conv_output_0">
					<dim>1</dim>
					<dim>128</dim>
					<dim>25</dim>
					<dim>129</dim>
				</port>
			</output>
		</layer>
		<layer id="58" name="Constant_128_compressed" type="Const" version="opset1">
			<data element_type="f16" shape="1" offset="324" size="2" />
			<output>
				<port id="0" precision="FP16">
					<dim>1</dim>
				</port>
			</output>
		</layer>
		<layer id="59" name="Constant_128" type="Convert" version="opset1">
			<data destination_type="f32" />
			<rt_info>
				<attribute name="decompression" version="0" />
			</rt_info>
			<input>
				<port id="0" precision="FP16">
					<dim>1</dim>
				</port>
			</input>
			<output>
				<port id="1" precision="FP32">
					<dim>1</dim>
				</port>
			</output>
		</layer>
		<layer id="60" name="/model/model.5/model.5.2/LeakyRelu" type="PReLU" version="opset1">
			<input>
				<port id="0" precision="FP32">
					<dim>1</dim>
					<dim>128</dim>
					<dim>25</dim>
					<dim>129</dim>
				</port>
				<port id="1" precision="FP32">
					<dim>1</dim>
				</port>
			</input>
			<output>
				<port id="2" precision="FP32" names="/model/model.5/model.5.2/LeakyRelu_output_0">
					<dim>1</dim>
					<dim>128</dim>
					<dim>25</dim>
					<dim>129</dim>
				</port>
			</output>
		</layer>
		<layer id="61" name="model.6.0.weight_compressed" type="Const" version="opset1">
			<data element_type="f16" shape="128, 128, 3, 3" offset="784646" size="294912" />
			<output>
				<port id="0" precision="FP16">
					<dim>128</dim>
					<dim>128</dim>
					<dim>3</dim>
					<dim>3</dim>
				</port>
			</output>
		</layer>
		<layer id="62" name="model.6.0.weight" type="Convert" version="opset1">
			<data destination_type="f32" />
			<rt_info>
				<attribute name="decompression" version="0" />
			</rt_info>
			<input>
				<port id="0" precision="FP16">
					<dim>128</dim>
					<dim>128</dim>
					<dim>3</dim>
					<dim>3</dim>
				</port>
			</input>
			<output>
				<port id="1" precision="FP32" names="model.6.0.weight">
					<dim>128</dim>
					<dim>128</dim>
					<dim>3</dim>
					<dim>3</dim>
				</port>
			</output>
		</layer>
		<layer id="63" name="/model/model.6/model.6.0/Conv/WithoutBiases" type="Convolution" version="opset1">
			<data strides="1, 1" dilations="1, 1" pads_begin="1, 1" pads_end="1, 1" auto_pad="explicit" />
			<input>
				<port id="0" precision="FP32">
					<dim>1</dim>
					<dim>128</dim>
					<dim>25</dim>
					<dim>129</dim>
				</port>
				<port id="1" precision="FP32">
					<dim>128</dim>
					<dim>128</dim>
					<dim>3</dim>
					<dim>3</dim>
				</port>
			</input>
			<output>
				<port id="2" precision="FP32">
					<dim>1</dim>
					<dim>128</dim>
					<dim>25</dim>
					<dim>129</dim>
				</port>
			</output>
		</layer>
		<layer id="64" name="Reshape_141_compressed" type="Const" version="opset1">
			<data element_type="f16" shape="1, 128, 1, 1" offset="1079558" size="256" />
			<output>
				<port id="0" precision="FP16">
					<dim>1</dim>
					<dim>128</dim>
					<dim>1</dim>
					<dim>1</dim>
				</port>
			</output>
		</layer>
		<layer id="65" name="Reshape_141" type="Convert" version="opset1">
			<data destination_type="f32" />
			<rt_info>
				<attribute name="decompression" version="0" />
			</rt_info>
			<input>
				<port id="0" precision="FP16">
					<dim>1</dim>
					<dim>128</dim>
					<dim>1</dim>
					<dim>1</dim>
				</port>
			</input>
			<output>
				<port id="1" precision="FP32">
					<dim>1</dim>
					<dim>128</dim>
					<dim>1</dim>
					<dim>1</dim>
				</port>
			</output>
		</layer>
		<layer id="66" name="/model/model.6/model.6.0/Conv" type="Add" version="opset1">
			<data auto_broadcast="numpy" />
			<input>
				<port id="0" precision="FP32">
					<dim>1</dim>
					<dim>128</dim>
					<dim>25</dim>
					<dim>129</dim>
				</port>
				<port id="1" precision="FP32">
					<dim>1</dim>
					<dim>128</dim>
					<dim>1</dim>
					<dim>1</dim>
				</port>
			</input>
			<output>
				<port id="2" precision="FP32" names="/model/model.6/model.6.0/Conv_output_0">
					<dim>1</dim>
					<dim>128</dim>
					<dim>25</dim>
					<dim>129</dim>
				</port>
			</output>
		</layer>
		<layer id="67" name="Constant_145_compressed" type="Const" version="opset1">
			<data element_type="f16" shape="1" offset="324" size="2" />
			<output>
				<port id="0" precision="FP16">
					<dim>1</dim>
				</port>
			</output>
		</layer>
		<layer id="68" name="Constant_145" type="Convert" version="opset1">
			<data destination_type="f32" />
			<rt_info>
				<attribute name="decompression" version="0" />
			</rt_info>
			<input>
				<port id="0" precision="FP16">
					<dim>1</dim>
				</port>
			</input>
			<output>
				<port id="1" precision="FP32">
					<dim>1</dim>
				</port>
			</output>
		</layer>
		<layer id="69" name="/model/model.6/model.6.1/LeakyRelu" type="PReLU" version="opset1">
			<input>
				<port id="0" precision="FP32">
					<dim>1</dim>
					<dim>128</dim>
					<dim>25</dim>
					<dim>129</dim>
				</port>
				<port id="1" precision="FP32">
					<dim>1</dim>
				</port>
			</input>
			<output>
				<port id="2" precision="FP32" names="/model/model.6/model.6.1/LeakyRelu_output_0">
					<dim>1</dim>
					<dim>128</dim>
					<dim>25</dim>
					<dim>129</dim>
				</port>
			</output>
		</layer>
		<layer id="70" name="model.7.weight_compressed" type="Const" version="opset1">
			<data element_type="f16" shape="12, 128, 1, 1" offset="1079814" size="3072" />
			<output>
				<port id="0" precision="FP16">
					<dim>12</dim>
					<dim>128</dim>
					<dim>1</dim>
					<dim>1</dim>
				</port>
			</output>
		</layer>
		<layer id="71" name="model.7.weight" type="Convert" version="opset1">
			<data destination_type="f32" />
			<rt_info>
				<attribute name="decompression" version="0" />
			</rt_info>
			<input>
				<port id="0" precision="FP16">
					<dim>12</dim>
					<dim>128</dim>
					<dim>1</dim>
					<dim>1</dim>
				</port>
			</input>
			<output>
				<port id="1" precision="FP32" names="model.7.weight">
					<dim>12</dim>
					<dim>128</dim>
					<dim>1</dim>
					<dim>1</dim>
				</port>
			</output>
		</layer>
		<layer id="72" name="/model/model.7/Conv/WithoutBiases" type="Convolution" version="opset1">
			<data strides="1, 1" dilations="1, 1" pads_begin="0, 0" pads_end="0, 0" auto_pad="explicit" />
			<input>
				<port id="0" precision="FP32">
					<dim>1</dim>
					<dim>128</dim>
					<dim>25</dim>
					<dim>129</dim>
				</port>
				<port id="1" precision="FP32">
					<dim>12</dim>
					<dim>128</dim>
					<dim>1</dim>
					<dim>1</dim>
				</port>
			</input>
			<output>
				<port id="2" precision="FP32">
					<dim>1</dim>
					<dim>12</dim>
					<dim>25</dim>
					<dim>129</dim>
				</port>
			</output>
		</layer>
		<layer id="73" name="Reshape_158_compressed" type="Const" version="opset1">
			<data element_type="f16" shape="1, 12, 1, 1" offset="1082886" size="24" />
			<output>
				<port id="0" precision="FP16">
					<dim>1</dim>
					<dim>12</dim>
					<dim>1</dim>
					<dim>1</dim>
				</port>
			</output>
		</layer>
		<layer id="74" name="Reshape_158" type="Convert" version="opset1">
			<data destination_type="f32" />
			<rt_info>
				<attribute name="decompression" version="0" />
			</rt_info>
			<input>
				<port id="0" precision="FP16">
					<dim>1</dim>
					<dim>12</dim>
					<dim>1</dim>
					<dim>1</dim>
				</port>
			</input>
			<output>
				<port id="1" precision="FP32">
					<dim>1</dim>
					<dim>12</dim>
					<dim>1</dim>
					<dim>1</dim>
				</port>
			</output>
		</layer>
		<layer id="75" name="/model/model.7/Conv" type="Add" version="opset1">
			<data auto_broadcast="numpy" />
			<input>
				<port id="0" precision="FP32">
					<dim>1</dim>
					<dim>12</dim>
					<dim>25</dim>
					<dim>129</dim>
				</port>
				<port id="1" precision="FP32">
					<dim>1</dim>
					<dim>12</dim>
					<dim>1</dim>
					<dim>1</dim>
				</port>
			</input>
			<output>
				<port id="2" precision="FP32" names="/model/model.7/Conv_output_0">
					<dim>1</dim>
					<dim>12</dim>
					<dim>25</dim>
					<dim>129</dim>
				</port>
			</output>
		</layer>
		<layer id="76" name="/Constant_1" type="Const" version="opset1">
			<data element_type="i64" shape="" offset="1082910" size="8" />
			<output>
				<port id="0" precision="I64" names="/Constant_1_output_0" />
			</output>
		</layer>
		<layer id="77" name="Constant_183" type="Const" version="opset1">
			<data element_type="i64" shape="" offset="1082918" size="8" />
			<output>
				<port id="0" precision="I64" />
			</output>
		</layer>
		<layer id="78" name="/Gather" type="Gather" version="opset8">
			<data batch_dims="0" />
			<input>
				<port id="0" precision="FP32">
					<dim>1</dim>
					<dim>12</dim>
					<dim>25</dim>
					<dim>129</dim>
				</port>
				<port id="1" precision="I64" />
				<port id="2" precision="I64" />
			</input>
			<output>
				<port id="3" precision="FP32" names="/Gather_output_0">
					<dim>1</dim>
					<dim>25</dim>
					<dim>129</dim>
				</port>
			</output>
		</layer>
		<layer id="79" name="/Sigmoid" type="Sigmoid" version="opset1">
			<input>
				<port id="0" precision="FP32">
					<dim>1</dim>
					<dim>25</dim>
					<dim>129</dim>
				</port>
			</input>
			<output>
				<port id="1" precision="FP32" names="/Sigmoid_output_0">
					<dim>1</dim>
					<dim>25</dim>
					<dim>129</dim>
				</port>
			</output>
		</layer>
		<layer id="80" name="/Mul" type="Multiply" version="opset1">
			<data auto_broadcast="numpy" />
			<input>
				<port id="0" precision="FP32">
					<dim>1</dim>
					<dim>1</dim>
					<dim>1</dim>
				</port>
				<port id="1" precision="FP32">
					<dim>1</dim>
					<dim>25</dim>
					<dim>129</dim>
				</port>
			</input>
			<output>
				<port id="2" precision="FP32" names="/Mul_output_0">
					<dim>1</dim>
					<dim>25</dim>
					<dim>129</dim>
				</port>
			</output>
		</layer>
		<layer id="81" name="Constant_1443_compressed" type="Const" version="opset1">
			<data element_type="f16" shape="1, 25, 129" offset="1082926" size="6450" />
			<output>
				<port id="0" precision="FP16">
					<dim>1</dim>
					<dim>25</dim>
					<dim>129</dim>
				</port>
			</output>
		</layer>
		<layer id="82" name="Constant_1443" type="Convert" version="opset1">
			<data destination_type="f32" />
			<rt_info>
				<attribute name="decompression" version="0" />
			</rt_info>
			<input>
				<port id="0" precision="FP16">
					<dim>1</dim>
					<dim>25</dim>
					<dim>129</dim>
				</port>
			</input>
			<output>
				<port id="1" precision="FP32">
					<dim>1</dim>
					<dim>25</dim>
					<dim>129</dim>
				</port>
			</output>
		</layer>
		<layer id="83" name="/Add" type="Add" version="opset1">
			<data auto_broadcast="numpy" />
			<input>
				<port id="0" precision="FP32">
					<dim>1</dim>
					<dim>25</dim>
					<dim>129</dim>
				</port>
				<port id="1" precision="FP32">
					<dim>1</dim>
					<dim>25</dim>
					<dim>129</dim>
				</port>
			</input>
			<output>
				<port id="2" precision="FP32" names="/Add_output_0">
					<dim>1</dim>
					<dim>25</dim>
					<dim>129</dim>
				</port>
			</output>
		</layer>
		<layer id="84" name="/Constant_13" type="Const" version="opset1">
			<data element_type="i64" shape="1" offset="1082918" size="8" />
			<output>
				<port id="0" precision="I64" names="/Constant_13_output_0">
					<dim>1</dim>
				</port>
			</output>
		</layer>
		<layer id="85" name="/Unsqueeze" type="Unsqueeze" version="opset1">
			<input>
				<port id="0" precision="FP32">
					<dim>1</dim>
					<dim>25</dim>
					<dim>129</dim>
				</port>
				<port id="1" precision="I64">
					<dim>1</dim>
				</port>
			</input>
			<output>
				<port id="2" precision="FP32" names="/Unsqueeze_output_0">
					<dim>1</dim>
					<dim>1</dim>
					<dim>25</dim>
					<dim>129</dim>
				</port>
			</output>
		</layer>
		<layer id="86" name="Constant_1444_compressed" type="Const" version="opset1">
			<data element_type="f16" shape="1, 1, 1" offset="1089376" size="2" />
			<output>
				<port id="0" precision="FP16">
					<dim>1</dim>
					<dim>1</dim>
					<dim>1</dim>
				</port>
			</output>
		</layer>
		<layer id="87" name="Constant_1444" type="Convert" version="opset1">
			<data destination_type="f32" />
			<rt_info>
				<attribute name="decompression" version="0" />
			</rt_info>
			<input>
				<port id="0" precision="FP16">
					<dim>1</dim>
					<dim>1</dim>
					<dim>1</dim>
				</port>
			</input>
			<output>
				<port id="1" precision="FP32">
					<dim>1</dim>
					<dim>1</dim>
					<dim>1</dim>
				</port>
			</output>
		</layer>
		<layer id="88" name="/model/model.0/model.0.0/Constant" type="Const" version="opset1">
			<data element_type="i64" shape="" offset="1082918" size="8" />
			<output>
				<port id="0" precision="I64" names="/model/model.0/model.0.0/Constant_output_0" />
			</output>
		</layer>
		<layer id="89" name="Constant_193" type="Const" version="opset1">
			<data element_type="i64" shape="" offset="1082918" size="8" />
			<output>
				<port id="0" precision="I64" />
			</output>
		</layer>
		<layer id="90" name="/Gather_1" type="Gather" version="opset8">
			<data batch_dims="0" />
			<input>
				<port id="0" precision="FP32">
					<dim>1</dim>
					<dim>12</dim>
					<dim>25</dim>
					<dim>129</dim>
				</port>
				<port id="1" precision="I64" />
				<port id="2" precision="I64" />
			</input>
			<output>
				<port id="3" precision="FP32" names="/Gather_1_output_0">
					<dim>1</dim>
					<dim>25</dim>
					<dim>129</dim>
				</port>
			</output>
		</layer>
		<layer id="91" name="/Sigmoid_1" type="Sigmoid" version="opset1">
			<input>
				<port id="0" precision="FP32">
					<dim>1</dim>
					<dim>25</dim>
					<dim>129</dim>
				</port>
			</input>
			<output>
				<port id="1" precision="FP32" names="/Sigmoid_1_output_0">
					<dim>1</dim>
					<dim>25</dim>
					<dim>129</dim>
				</port>
			</output>
		</layer>
		<layer id="92" name="/Mul_1" type="Multiply" version="opset1">
			<data auto_broadcast="numpy" />
			<input>
				<port id="0" precision="FP32">
					<dim>1</dim>
					<dim>1</dim>
					<dim>1</dim>
				</port>
				<port id="1" precision="FP32">
					<dim>1</dim>
					<dim>25</dim>
					<dim>129</dim>
				</port>
			</input>
			<output>
				<port id="2" precision="FP32" names="/Mul_1_output_0">
					<dim>1</dim>
					<dim>25</dim>
					<dim>129</dim>
				</port>
			</output>
		</layer>
		<layer id="93" name="Constant_1445_compressed" type="Const" version="opset1">
			<data element_type="f16" shape="1, 25, 129" offset="1089378" size="6450" />
			<output>
				<port id="0" precision="FP16">
					<dim>1</dim>
					<dim>25</dim>
					<dim>129</dim>
				</port>
			</output>
		</layer>
		<layer id="94" name="Constant_1445" type="Convert" version="opset1">
			<data destination_type="f32" />
			<rt_info>
				<attribute name="decompression" version="0" />
			</rt_info>
			<input>
				<port id="0" precision="FP16">
					<dim>1</dim>
					<dim>25</dim>
					<dim>129</dim>
				</port>
			</input>
			<output>
				<port id="1" precision="FP32">
					<dim>1</dim>
					<dim>25</dim>
					<dim>129</dim>
				</port>
			</output>
		</layer>
		<layer id="95" name="/Add_1" type="Add" version="opset1">
			<data auto_broadcast="numpy" />
			<input>
				<port id="0" precision="FP32">
					<dim>1</dim>
					<dim>25</dim>
					<dim>129</dim>
				</port>
				<port id="1" precision="FP32">
					<dim>1</dim>
					<dim>25</dim>
					<dim>129</dim>
				</port>
			</input>
			<output>
				<port id="2" precision="FP32" names="/Add_1_output_0">
					<dim>1</dim>
					<dim>25</dim>
					<dim>129</dim>
				</port>
			</output>
		</layer>
		<layer id="96" name="/Constant_15" type="Const" version="opset1">
			<data element_type="i64" shape="1" offset="1082918" size="8" />
			<output>
				<port id="0" precision="I64" names="/Constant_15_output_0">
					<dim>1</dim>
				</port>
			</output>
		</layer>
		<layer id="97" name="/Unsqueeze_1" type="Unsqueeze" version="opset1">
			<input>
				<port id="0" precision="FP32">
					<dim>1</dim>
					<dim>25</dim>
					<dim>129</dim>
				</port>
				<port id="1" precision="I64">
					<dim>1</dim>
				</port>
			</input>
			<output>
				<port id="2" precision="FP32" names="/Unsqueeze_1_output_0">
					<dim>1</dim>
					<dim>1</dim>
					<dim>25</dim>
					<dim>129</dim>
				</port>
			</output>
		</layer>
		<layer id="98" name="Constant_1446_compressed" type="Const" version="opset1">
			<data element_type="f16" shape="1, 1, 1, 1" offset="1095828" size="2" />
			<output>
				<port id="0" precision="FP16">
					<dim>1</dim>
					<dim>1</dim>
					<dim>1</dim>
					<dim>1</dim>
				</port>
			</output>
		</layer>
		<layer id="99" name="Constant_1446" type="Convert" version="opset1">
			<data destination_type="f32" />
			<rt_info>
				<attribute name="decompression" version="0" />
			</rt_info>
			<input>
				<port id="0" precision="FP16">
					<dim>1</dim>
					<dim>1</dim>
					<dim>1</dim>
					<dim>1</dim>
				</port>
			</input>
			<output>
				<port id="1" precision="FP32">
					<dim>1</dim>
					<dim>1</dim>
					<dim>1</dim>
					<dim>1</dim>
				</port>
			</output>
		</layer>
		<layer id="100" name="Constant_1357" type="Const" version="opset1">
			<data element_type="i64" shape="2" offset="1095830" size="16" />
			<output>
				<port id="0" precision="I64">
					<dim>2</dim>
				</port>
			</output>
		</layer>
		<layer id="101" name="Constant_1360" type="Const" version="opset1">
			<data element_type="i64" shape="2" offset="1095846" size="16" />
			<output>
				<port id="0" precision="I64">
					<dim>2</dim>
				</port>
			</output>
		</layer>
		<layer id="102" name="Constant_1363" type="Const" version="opset1">
			<data element_type="i64" shape="2" offset="1095862" size="16" />
			<output>
				<port id="0" precision="I64">
					<dim>2</dim>
				</port>
			</output>
		</layer>
		<layer id="103" name="/Slice_1" type="StridedSlice" version="opset1">
			<data begin_mask="1, 0" end_mask="1, 0" new_axis_mask="" shrink_axis_mask="" ellipsis_mask="" />
			<input>
				<port id="0" precision="FP32">
					<dim>1</dim>
					<dim>12</dim>
					<dim>25</dim>
					<dim>129</dim>
				</port>
				<port id="1" precision="I64">
					<dim>2</dim>
				</port>
				<port id="2" precision="I64">
					<dim>2</dim>
				</port>
				<port id="3" precision="I64">
					<dim>2</dim>
				</port>
			</input>
			<output>
				<port id="4" precision="FP32" names="/Slice_1_output_0">
					<dim>1</dim>
					<dim>2</dim>
					<dim>25</dim>
					<dim>129</dim>
				</port>
			</output>
		</layer>
		<layer id="104" name="/Clip" type="Clamp" version="opset1">
			<data min="-3.4028234663852886e+38" max="80" />
			<input>
				<port id="0" precision="FP32">
					<dim>1</dim>
					<dim>2</dim>
					<dim>25</dim>
					<dim>129</dim>
				</port>
			</input>
			<output>
				<port id="1" precision="FP32" names="/Clip_output_0">
					<dim>1</dim>
					<dim>2</dim>
					<dim>25</dim>
					<dim>129</dim>
				</port>
			</output>
		</layer>
		<layer id="105" name="Constant_1369" type="Const" version="opset1">
			<data element_type="i64" shape="2" offset="1095878" size="16" />
			<output>
				<port id="0" precision="I64">
					<dim>2</dim>
				</port>
			</output>
		</layer>
		<layer id="106" name="Constant_1372" type="Const" version="opset1">
			<data element_type="i64" shape="2" offset="1095894" size="16" />
			<output>
				<port id="0" precision="I64">
					<dim>2</dim>
				</port>
			</output>
		</layer>
		<layer id="107" name="Constant_1375" type="Const" version="opset1">
			<data element_type="i64" shape="2" offset="1095862" size="16" />
			<output>
				<port id="0" precision="I64">
					<dim>2</dim>
				</port>
			</output>
		</layer>
		<layer id="108" name="/Slice_2" type="StridedSlice" version="opset1">
			<data begin_mask="1, 0" end_mask="1, 0" new_axis_mask="" shrink_axis_mask="" ellipsis_mask="" />
			<input>
				<port id="0" precision="FP32">
					<dim>1</dim>
					<dim>2</dim>
					<dim>25</dim>
					<dim>129</dim>
				</port>
				<port id="1" precision="I64">
					<dim>2</dim>
				</port>
				<port id="2" precision="I64">
					<dim>2</dim>
				</port>
				<port id="3" precision="I64">
					<dim>2</dim>
				</port>
			</input>
			<output>
				<port id="4" precision="FP32" names="/Slice_2_output_0">
					<dim>1</dim>
					<dim>1</dim>
					<dim>25</dim>
					<dim>129</dim>
				</port>
			</output>
		</layer>
		<layer id="109" name="/Exp" type="Exp" version="opset1">
			<input>
				<port id="0" precision="FP32">
					<dim>1</dim>
					<dim>1</dim>
					<dim>25</dim>
					<dim>129</dim>
				</port>
			</input>
			<output>
				<port id="1" precision="FP32" names="/Exp_output_0">
					<dim>1</dim>
					<dim>1</dim>
					<dim>25</dim>
					<dim>129</dim>
				</port>
			</output>
		</layer>
		<layer id="110" name="/Mul_2" type="Multiply" version="opset1">
			<data auto_broadcast="numpy" />
			<input>
				<port id="0" precision="FP32">
					<dim>1</dim>
					<dim>1</dim>
					<dim>1</dim>
					<dim>1</dim>
				</port>
				<port id="1" precision="FP32">
					<dim>1</dim>
					<dim>1</dim>
					<dim>25</dim>
					<dim>129</dim>
				</port>
			</input>
			<output>
				<port id="2" precision="FP32" names="/Mul_2_output_0">
					<dim>1</dim>
					<dim>1</dim>
					<dim>25</dim>
					<dim>129</dim>
				</port>
			</output>
		</layer>
		<layer id="111" name="Constant_1381" type="Const" version="opset1">
			<data element_type="i64" shape="2" offset="1095894" size="16" />
			<output>
				<port id="0" precision="I64">
					<dim>2</dim>
				</port>
			</output>
		</layer>
		<layer id="112" name="Constant_1384" type="Const" version="opset1">
			<data element_type="i64" shape="2" offset="1095830" size="16" />
			<output>
				<port id="0" precision="I64">
					<dim>2</dim>
				</port>
			</output>
		</layer>
		<layer id="113" name="Constant_1387" type="Const" version="opset1">
			<data element_type="i64" shape="2" offset="1095862" size="16" />
			<output>
				<port id="0" precision="I64">
					<dim>2</dim>
				</port>
			</output>
		</layer>
		<layer id="114" name="/Slice_3" type="StridedSlice" version="opset1">
			<data begin_mask="1, 0" end_mask="1, 0" new_axis_mask="" shrink_axis_mask="" ellipsis_mask="" />
			<input>
				<port id="0" precision="FP32">
					<dim>1</dim>
					<dim>2</dim>
					<dim>25</dim>
					<dim>129</dim>
				</port>
				<port id="1" precision="I64">
					<dim>2</dim>
				</port>
				<port id="2" precision="I64">
					<dim>2</dim>
				</port>
				<port id="3" precision="I64">
					<dim>2</dim>
				</port>
			</input>
			<output>
				<port id="4" precision="FP32" names="/Slice_3_output_0">
					<dim>1</dim>
					<dim>1</dim>
					<dim>25</dim>
					<dim>129</dim>
				</port>
			</output>
		</layer>
		<layer id="115" name="/Exp_1" type="Exp" version="opset1">
			<input>
				<port id="0" precision="FP32">
					<dim>1</dim>
					<dim>1</dim>
					<dim>25</dim>
					<dim>129</dim>
				</port>
			</input>
			<output>
				<port id="1" precision="FP32" names="/Exp_1_output_0">
					<dim>1</dim>
					<dim>1</dim>
					<dim>25</dim>
					<dim>129</dim>
				</port>
			</output>
		</layer>
		<layer id="116" name="Constant_1447_compressed" type="Const" version="opset1">
			<data element_type="f16" shape="1, 1, 1, 1" offset="1095910" size="2" />
			<output>
				<port id="0" precision="FP16">
					<dim>1</dim>
					<dim>1</dim>
					<dim>1</dim>
					<dim>1</dim>
				</port>
			</output>
		</layer>
		<layer id="117" name="Constant_1447" type="Convert" version="opset1">
			<data destination_type="f32" />
			<rt_info>
				<attribute name="decompression" version="0" />
			</rt_info>
			<input>
				<port id="0" precision="FP16">
					<dim>1</dim>
					<dim>1</dim>
					<dim>1</dim>
					<dim>1</dim>
				</port>
			</input>
			<output>
				<port id="1" precision="FP32">
					<dim>1</dim>
					<dim>1</dim>
					<dim>1</dim>
					<dim>1</dim>
				</port>
			</output>
		</layer>
		<layer id="118" name="/Mul_4" type="Multiply" version="opset1">
			<data auto_broadcast="numpy" />
			<input>
				<port id="0" precision="FP32">
					<dim>1</dim>
					<dim>1</dim>
					<dim>25</dim>
					<dim>129</dim>
				</port>
				<port id="1" precision="FP32">
					<dim>1</dim>
					<dim>1</dim>
					<dim>1</dim>
					<dim>1</dim>
				</port>
			</input>
			<output>
				<port id="2" precision="FP32" names="/Mul_4_output_0">
					<dim>1</dim>
					<dim>1</dim>
					<dim>25</dim>
					<dim>129</dim>
				</port>
			</output>
		</layer>
		<layer id="119" name="/Constant_6" type="Const" version="opset1">
			<data element_type="i64" shape="" offset="1095912" size="8" />
			<output>
				<port id="0" precision="I64" names="/Constant_6_output_0" />
			</output>
		</layer>
		<layer id="120" name="Constant_215" type="Const" version="opset1">
			<data element_type="i64" shape="" offset="1082918" size="8" />
			<output>
				<port id="0" precision="I64" />
			</output>
		</layer>
		<layer id="121" name="/Gather_2" type="Gather" version="opset8">
			<data batch_dims="0" />
			<input>
				<port id="0" precision="FP32">
					<dim>1</dim>
					<dim>12</dim>
					<dim>25</dim>
					<dim>129</dim>
				</port>
				<port id="1" precision="I64" />
				<port id="2" precision="I64" />
			</input>
			<output>
				<port id="3" precision="FP32" names="/Gather_2_output_0">
					<dim>1</dim>
					<dim>25</dim>
					<dim>129</dim>
				</port>
			</output>
		</layer>
		<layer id="122" name="/Sigmoid_2" type="Sigmoid" version="opset1">
			<input>
				<port id="0" precision="FP32">
					<dim>1</dim>
					<dim>25</dim>
					<dim>129</dim>
				</port>
			</input>
			<output>
				<port id="1" precision="FP32" names="/Sigmoid_2_output_0">
					<dim>1</dim>
					<dim>25</dim>
					<dim>129</dim>
				</port>
			</output>
		</layer>
		<layer id="123" name="/Constant_24" type="Const" version="opset1">
			<data element_type="i64" shape="1" offset="1082918" size="8" />
			<output>
				<port id="0" precision="I64" names="/Constant_24_output_0">
					<dim>1</dim>
				</port>
			</output>
		</layer>
		<layer id="124" name="/Unsqueeze_2" type="Unsqueeze" version="opset1">
			<input>
				<port id="0" precision="FP32">
					<dim>1</dim>
					<dim>25</dim>
					<dim>129</dim>
				</port>
				<port id="1" precision="I64">
					<dim>1</dim>
				</port>
			</input>
			<output>
				<port id="2" precision="FP32" names="/Unsqueeze_2_output_0">
					<dim>1</dim>
					<dim>1</dim>
					<dim>25</dim>
					<dim>129</dim>
				</port>
			</output>
		</layer>
		<layer id="125" name="Constant_1393" type="Const" version="opset1">
			<data element_type="i64" shape="2" offset="1095920" size="16" />
			<output>
				<port id="0" precision="I64">
					<dim>2</dim>
				</port>
			</output>
		</layer>
		<layer id="126" name="Constant_1396" type="Const" version="opset1">
			<data element_type="i64" shape="2" offset="1095936" size="16" />
			<output>
				<port id="0" precision="I64">
					<dim>2</dim>
				</port>
			</output>
		</layer>
		<layer id="127" name="Constant_1399" type="Const" version="opset1">
			<data element_type="i64" shape="2" offset="1095862" size="16" />
			<output>
				<port id="0" precision="I64">
					<dim>2</dim>
				</port>
			</output>
		</layer>
		<layer id="128" name="/Slice" type="StridedSlice" version="opset1">
			<data begin_mask="1, 0" end_mask="1, 0" new_axis_mask="" shrink_axis_mask="" ellipsis_mask="" />
			<input>
				<port id="0" precision="FP32">
					<dim>1</dim>
					<dim>12</dim>
					<dim>25</dim>
					<dim>129</dim>
				</port>
				<port id="1" precision="I64">
					<dim>2</dim>
				</port>
				<port id="2" precision="I64">
					<dim>2</dim>
				</port>
				<port id="3" precision="I64">
					<dim>2</dim>
				</port>
			</input>
			<output>
				<port id="4" precision="FP32" names="/Slice_output_0">
					<dim>1</dim>
					<dim>7</dim>
					<dim>25</dim>
					<dim>129</dim>
				</port>
			</output>
		</layer>
		<layer id="129" name="/Softmax" type="SoftMax" version="opset8">
			<data axis="1" />
			<input>
				<port id="0" precision="FP32">
					<dim>1</dim>
					<dim>7</dim>
					<dim>25</dim>
					<dim>129</dim>
				</port>
			</input>
			<output>
				<port id="1" precision="FP32" names="/Softmax_output_0">
					<dim>1</dim>
					<dim>7</dim>
					<dim>25</dim>
					<dim>129</dim>
				</port>
			</output>
		</layer>
		<layer id="130" name="Constant_221" type="Const" version="opset1">
			<data element_type="i64" shape="" offset="1082918" size="8" />
			<output>
				<port id="0" precision="I64" />
			</output>
		</layer>
		<layer id="131" name="/Constant_25" type="Const" version="opset1">
			<data element_type="i64" shape="7" offset="1095952" size="56" />
			<output>
				<port id="0" precision="I64" names="/Constant_25_output_0">
					<dim>7</dim>
				</port>
			</output>
		</layer>
		<layer id="132" name="/Split" type="VariadicSplit" version="opset1">
			<input>
				<port id="0" precision="FP32">
					<dim>1</dim>
					<dim>7</dim>
					<dim>25</dim>
					<dim>129</dim>
				</port>
				<port id="1" precision="I64" />
				<port id="2" precision="I64">
					<dim>7</dim>
				</port>
			</input>
			<output>
				<port id="3" precision="FP32" names="/Split_output_0">
					<dim>1</dim>
					<dim>1</dim>
					<dim>25</dim>
					<dim>129</dim>
				</port>
				<port id="4" precision="FP32" names="/Split_output_1">
					<dim>1</dim>
					<dim>1</dim>
					<dim>25</dim>
					<dim>129</dim>
				</port>
				<port id="5" precision="FP32" names="/Split_output_2">
					<dim>1</dim>
					<dim>1</dim>
					<dim>25</dim>
					<dim>129</dim>
				</port>
				<port id="6" precision="FP32" names="/Split_output_3">
					<dim>1</dim>
					<dim>1</dim>
					<dim>25</dim>
					<dim>129</dim>
				</port>
				<port id="7" precision="FP32" names="/Split_output_4">
					<dim>1</dim>
					<dim>1</dim>
					<dim>25</dim>
					<dim>129</dim>
				</port>
				<port id="8" precision="FP32" names="/Split_output_5">
					<dim>1</dim>
					<dim>1</dim>
					<dim>25</dim>
					<dim>129</dim>
				</port>
				<port id="9" precision="FP32" names="/Split_output_6">
					<dim>1</dim>
					<dim>1</dim>
					<dim>25</dim>
					<dim>129</dim>
				</port>
			</output>
		</layer>
		<layer id="133" name="142" type="Concat" version="opset1">
			<data axis="1" />
			<input>
				<port id="0" precision="FP32">
					<dim>1</dim>
					<dim>1</dim>
					<dim>25</dim>
					<dim>129</dim>
				</port>
				<port id="1" precision="FP32">
					<dim>1</dim>
					<dim>1</dim>
					<dim>25</dim>
					<dim>129</dim>
				</port>
				<port id="2" precision="FP32">
					<dim>1</dim>
					<dim>1</dim>
					<dim>25</dim>
					<dim>129</dim>
				</port>
				<port id="3" precision="FP32">
					<dim>1</dim>
					<dim>1</dim>
					<dim>25</dim>
					<dim>129</dim>
				</port>
				<port id="4" precision="FP32">
					<dim>1</dim>
					<dim>1</dim>
					<dim>25</dim>
					<dim>129</dim>
				</port>
				<port id="5" precision="FP32">
					<dim>1</dim>
					<dim>1</dim>
					<dim>25</dim>
					<dim>129</dim>
				</port>
				<port id="6" precision="FP32">
					<dim>1</dim>
					<dim>1</dim>
					<dim>25</dim>
					<dim>129</dim>
				</port>
				<port id="7" precision="FP32">
					<dim>1</dim>
					<dim>1</dim>
					<dim>25</dim>
					<dim>129</dim>
				</port>
				<port id="8" precision="FP32">
					<dim>1</dim>
					<dim>1</dim>
					<dim>25</dim>
					<dim>129</dim>
				</port>
				<port id="9" precision="FP32">
					<dim>1</dim>
					<dim>1</dim>
					<dim>25</dim>
					<dim>129</dim>
				</port>
				<port id="10" precision="FP32">
					<dim>1</dim>
					<dim>1</dim>
					<dim>25</dim>
					<dim>129</dim>
				</port>
				<port id="11" precision="FP32">
					<dim>1</dim>
					<dim>1</dim>
					<dim>25</dim>
					<dim>129</dim>
				</port>
			</input>
			<output>
				<port id="12" precision="FP32" names="142">
					<dim>1</dim>
					<dim>12</dim>
					<dim>25</dim>
					<dim>129</dim>
				</port>
			</output>
		</layer>
		<layer id="134" name="142/sink_port_0" type="Result" version="opset1">
			<input>
				<port id="0" precision="FP32">
					<dim>1</dim>
					<dim>12</dim>
					<dim>25</dim>
					<dim>129</dim>
				</port>
			</input>
		</layer>
	</layers>
	<edges>
		<edge from-layer="0" from-port="0" to-layer="3" to-port="0" />
		<edge from-layer="1" from-port="0" to-layer="2" to-port="0" />
		<edge from-layer="2" from-port="1" to-layer="80" to-port="0" />
		<edge from-layer="3" from-port="1" to-layer="6" to-port="0" />
		<edge from-layer="4" from-port="0" to-layer="5" to-port="0" />
		<edge from-layer="5" from-port="1" to-layer="6" to-port="1" />
		<edge from-layer="6" from-port="2" to-layer="9" to-port="0" />
		<edge from-layer="7" from-port="0" to-layer="8" to-port="0" />
		<edge from-layer="8" from-port="1" to-layer="9" to-port="1" />
		<edge from-layer="9" from-port="2" to-layer="12" to-port="0" />
		<edge from-layer="10" from-port="0" to-layer="11" to-port="0" />
		<edge from-layer="11" from-port="1" to-layer="12" to-port="1" />
		<edge from-layer="12" from-port="2" to-layer="15" to-port="0" />
		<edge from-layer="13" from-port="0" to-layer="14" to-port="0" />
		<edge from-layer="14" from-port="1" to-layer="15" to-port="1" />
		<edge from-layer="15" from-port="2" to-layer="18" to-port="0" />
		<edge from-layer="16" from-port="0" to-layer="17" to-port="0" />
		<edge from-layer="17" from-port="1" to-layer="18" to-port="1" />
		<edge from-layer="18" from-port="2" to-layer="21" to-port="0" />
		<edge from-layer="19" from-port="0" to-layer="20" to-port="0" />
		<edge from-layer="20" from-port="1" to-layer="21" to-port="1" />
		<edge from-layer="21" from-port="2" to-layer="24" to-port="0" />
		<edge from-layer="22" from-port="0" to-layer="23" to-port="0" />
		<edge from-layer="23" from-port="1" to-layer="24" to-port="1" />
		<edge from-layer="24" from-port="2" to-layer="27" to-port="0" />
		<edge from-layer="25" from-port="0" to-layer="26" to-port="0" />
		<edge from-layer="26" from-port="1" to-layer="27" to-port="1" />
		<edge from-layer="27" from-port="2" to-layer="30" to-port="0" />
		<edge from-layer="28" from-port="0" to-layer="29" to-port="0" />
		<edge from-layer="29" from-port="1" to-layer="30" to-port="1" />
		<edge from-layer="30" from-port="2" to-layer="33" to-port="0" />
		<edge from-layer="31" from-port="0" to-layer="32" to-port="0" />
		<edge from-layer="32" from-port="1" to-layer="33" to-port="1" />
		<edge from-layer="33" from-port="2" to-layer="36" to-port="0" />
		<edge from-layer="34" from-port="0" to-layer="35" to-port="0" />
		<edge from-layer="35" from-port="1" to-layer="36" to-port="1" />
		<edge from-layer="36" from-port="2" to-layer="39" to-port="0" />
		<edge from-layer="37" from-port="0" to-layer="38" to-port="0" />
		<edge from-layer="38" from-port="1" to-layer="39" to-port="1" />
		<edge from-layer="39" from-port="2" to-layer="42" to-port="0" />
		<edge from-layer="40" from-port="0" to-layer="41" to-port="0" />
		<edge from-layer="41" from-port="1" to-layer="42" to-port="1" />
		<edge from-layer="42" from-port="2" to-layer="45" to-port="0" />
		<edge from-layer="43" from-port="0" to-layer="44" to-port="0" />
		<edge from-layer="44" from-port="1" to-layer="45" to-port="1" />
		<edge from-layer="45" from-port="2" to-layer="48" to-port="0" />
		<edge from-layer="46" from-port="0" to-layer="47" to-port="0" />
		<edge from-layer="47" from-port="1" to-layer="48" to-port="1" />
		<edge from-layer="48" from-port="2" to-layer="51" to-port="0" />
		<edge from-layer="49" from-port="0" to-layer="50" to-port="0" />
		<edge from-layer="50" from-port="1" to-layer="51" to-port="1" />
		<edge from-layer="51" from-port="2" to-layer="54" to-port="0" />
		<edge from-layer="52" from-port="0" to-layer="53" to-port="0" />
		<edge from-layer="53" from-port="1" to-layer="54" to-port="1" />
		<edge from-layer="54" from-port="2" to-layer="57" to-port="0" />
		<edge from-layer="55" from-port="0" to-layer="56" to-port="0" />
		<edge from-layer="56" from-port="1" to-layer="57" to-port="1" />
		<edge from-layer="57" from-port="2" to-layer="60" to-port="0" />
		<edge from-layer="58" from-port="0" to-layer="59" to-port="0" />
		<edge from-layer="59" from-port="1" to-layer="60" to-port="1" />
		<edge from-layer="60" from-port="2" to-layer="63" to-port="0" />
		<edge from-layer="61" from-port="0" to-layer="62" to-port="0" />
		<edge from-layer="62" from-port="1" to-layer="63" to-port="1" />
		<edge from-layer="63" from-port="2" to-layer="66" to-port="0" />
		<edge from-layer="64" from-port="0" to-layer="65" to-port="0" />
		<edge from-layer="65" from-port="1" to-layer="66" to-port="1" />
		<edge from-layer="66" from-port="2" to-layer="69" to-port="0" />
		<edge from-layer="67" from-port="0" to-layer="68" to-port="0" />
		<edge from-layer="68" from-port="1" to-layer="69" to-port="1" />
		<edge from-layer="69" from-port="2" to-layer="72" to-port="0" />
		<edge from-layer="70" from-port="0" to-layer="71" to-port="0" />
		<edge from-layer="71" from-port="1" to-layer="72" to-port="1" />
		<edge from-layer="72" from-port="2" to-layer="75" to-port="0" />
		<edge from-layer="73" from-port="0" to-layer="74" to-port="0" />
		<edge from-layer="74" from-port="1" to-layer="75" to-port="1" />
		<edge from-layer="75" from-port="2" to-layer="78" to-port="0" />
		<edge from-layer="75" from-port="2" to-layer="121" to-port="0" />
		<edge from-layer="75" from-port="2" to-layer="128" to-port="0" />
		<edge from-layer="75" from-port="2" to-layer="103" to-port="0" />
		<edge from-layer="75" from-port="2" to-layer="90" to-port="0" />
		<edge from-layer="76" from-port="0" to-layer="78" to-port="1" />
		<edge from-layer="77" from-port="0" to-layer="78" to-port="2" />
		<edge from-layer="78" from-port="3" to-layer="79" to-port="0" />
		<edge from-layer="79" from-port="1" to-layer="80" to-port="1" />
		<edge from-layer="80" from-port="2" to-layer="83" to-port="0" />
		<edge from-layer="81" from-port="0" to-layer="82" to-port="0" />
		<edge from-layer="82" from-port="1" to-layer="83" to-port="1" />
		<edge from-layer="83" from-port="2" to-layer="85" to-port="0" />
		<edge from-layer="84" from-port="0" to-layer="85" to-port="1" />
		<edge from-layer="85" from-port="2" to-layer="133" to-port="0" />
		<edge from-layer="86" from-port="0" to-layer="87" to-port="0" />
		<edge from-layer="87" from-port="1" to-layer="92" to-port="0" />
		<edge from-layer="88" from-port="0" to-layer="90" to-port="1" />
		<edge from-layer="89" from-port="0" to-layer="90" to-port="2" />
		<edge from-layer="90" from-port="3" to-layer="91" to-port="0" />
		<edge from-layer="91" from-port="1" to-layer="92" to-port="1" />
		<edge from-layer="92" from-port="2" to-layer="95" to-port="0" />
		<edge from-layer="93" from-port="0" to-layer="94" to-port="0" />
		<edge from-layer="94" from-port="1" to-layer="95" to-port="1" />
		<edge from-layer="95" from-port="2" to-layer="97" to-port="0" />
		<edge from-layer="96" from-port="0" to-layer="97" to-port="1" />
		<edge from-layer="97" from-port="2" to-layer="133" to-port="1" />
		<edge from-layer="98" from-port="0" to-layer="99" to-port="0" />
		<edge from-layer="99" from-port="1" to-layer="110" to-port="0" />
		<edge from-layer="100" from-port="0" to-layer="103" to-port="1" />
		<edge from-layer="101" from-port="0" to-layer="103" to-port="2" />
		<edge from-layer="102" from-port="0" to-layer="103" to-port="3" />
		<edge from-layer="103" from-port="4" to-layer="104" to-port="0" />
		<edge from-layer="104" from-port="1" to-layer="108" to-port="0" />
		<edge from-layer="104" from-port="1" to-layer="114" to-port="0" />
		<edge from-layer="105" from-port="0" to-layer="108" to-port="1" />
		<edge from-layer="106" from-port="0" to-layer="108" to-port="2" />
		<edge from-layer="107" from-port="0" to-layer="108" to-port="3" />
		<edge from-layer="108" from-port="4" to-layer="109" to-port="0" />
		<edge from-layer="109" from-port="1" to-layer="110" to-port="1" />
		<edge from-layer="110" from-port="2" to-layer="133" to-port="2" />
		<edge from-layer="111" from-port="0" to-layer="114" to-port="1" />
		<edge from-layer="112" from-port="0" to-layer="114" to-port="2" />
		<edge from-layer="113" from-port="0" to-layer="114" to-port="3" />
		<edge from-layer="114" from-port="4" to-layer="115" to-port="0" />
		<edge from-layer="115" from-port="1" to-layer="118" to-port="0" />
		<edge from-layer="116" from-port="0" to-layer="117" to-port="0" />
		<edge from-layer="117" from-port="1" to-layer="118" to-port="1" />
		<edge from-layer="118" from-port="2" to-layer="133" to-port="3" />
		<edge from-layer="119" from-port="0" to-layer="121" to-port="1" />
		<edge from-layer="120" from-port="0" to-layer="121" to-port="2" />
		<edge from-layer="121" from-port="3" to-layer="122" to-port="0" />
		<edge from-layer="122" from-port="1" to-layer="124" to-port="0" />
		<edge from-layer="123" from-port="0" to-layer="124" to-port="1" />
		<edge from-layer="124" from-port="2" to-layer="133" to-port="4" />
		<edge from-layer="125" from-port="0" to-layer="128" to-port="1" />
		<edge from-layer="126" from-port="0" to-layer="128" to-port="2" />
		<edge from-layer="127" from-port="0" to-layer="128" to-port="3" />
		<edge from-layer="128" from-port="4" to-layer="129" to-port="0" />
		<edge from-layer="129" from-port="1" to-layer="132" to-port="0" />
		<edge from-layer="130" from-port="0" to-layer="132" to-port="1" />
		<edge from-layer="131" from-port="0" to-layer="132" to-port="2" />
		<edge from-layer="132" from-port="3" to-layer="133" to-port="5" />
		<edge from-layer="132" from-port="4" to-layer="133" to-port="6" />
		<edge from-layer="132" from-port="5" to-layer="133" to-port="7" />
		<edge from-layer="132" from-port="6" to-layer="133" to-port="8" />
		<edge from-layer="132" from-port="7" to-layer="133" to-port="9" />
		<edge from-layer="132" from-port="8" to-layer="133" to-port="10" />
		<edge from-layer="132" from-port="9" to-layer="133" to-port="11" />
		<edge from-layer="133" from-port="12" to-layer="134" to-port="0" />
	</edges>
	<rt_info>
		<MO_version value="2023.0.2-11065-e662b1a3301-releases/2023/0" />
		<Runtime_version value="2023.0.2-11065-e662b1a3301-releases/2023/0" />
		<conversion_parameters>
			<compress_to_fp16 value="True" />
			<input_model value="DIR/best-quarter.onnx" />
			<is_python_api_used value="False" />
			<output_dir value="DIR" />
		</conversion_parameters>
		<legacy_frontend value="False" />
	</rt_info>
</net>
