<?xml version="1.0" ?>
<net name="torch_jit" version="11">
	<layers>
		<layer id="0" name="onnx::Cast_0" type="Parameter" version="opset1">
			<data element_type="f32" shape="1,1,300,400"/>
			<rt_info>
				<attribute name="fused_names" value="/Cast_output_0, onnx::Cast_0" version="0"/>
			</rt_info>
			<output>
				<port id="0" names="/Cast_output_0,onnx::Cast_0" precision="FP32">
					<dim>1</dim>
					<dim>1</dim>
					<dim>300</dim>
					<dim>400</dim>
				</port>
			</output>
		</layer>
		<layer id="1" name="Constant_1401" type="Const" version="opset1">
			<data element_type="f32" offset="0" shape="1, 1, 1, 1" size="4"/>
			<output>
				<port id="0" precision="FP32">
					<dim>1</dim>
					<dim>1</dim>
					<dim>1</dim>
					<dim>1</dim>
				</port>
			</output>
		</layer>
		<layer id="2" name="onnx::Conv_103" type="Const" version="opset1">
			<data element_type="f32" offset="4" shape="16, 1, 3, 3" size="576"/>
			<rt_info>
				<attribute name="fused_names" value="onnx::Conv_103" version="0"/>
			</rt_info>
			<output>
				<port id="0" names="onnx::Conv_103" precision="FP32">
					<dim>16</dim>
					<dim>1</dim>
					<dim>3</dim>
					<dim>3</dim>
				</port>
			</output>
		</layer>
		<layer id="3" name="Convolution_16" type="Convolution" version="opset1">
			<data auto_pad="explicit" dilations="1, 1" pads_begin="1, 1" pads_end="1, 1" strides="1, 1"/>
			<rt_info>
				<attribute name="fused_names" value="Convolution_16" version="0"/>
			</rt_info>
			<input>
				<port id="0" precision="FP32">
					<dim>1</dim>
					<dim>1</dim>
					<dim>300</dim>
					<dim>400</dim>
				</port>
				<port id="1" precision="FP32">
					<dim>16</dim>
					<dim>1</dim>
					<dim>3</dim>
					<dim>3</dim>
				</port>
			</input>
			<output>
				<port id="2" precision="FP32">
					<dim>1</dim>
					<dim>16</dim>
					<dim>300</dim>
					<dim>400</dim>
				</port>
			</output>
		</layer>
		<layer id="4" name="Reshape_36" type="Const" version="opset1">
			<data element_type="f32" offset="580" shape="1, 16, 1, 1" size="64"/>
			<output>
				<port id="0" precision="FP32">
					<dim>1</dim>
					<dim>16</dim>
					<dim>1</dim>
					<dim>1</dim>
				</port>
			</output>
		</layer>
		<layer id="5" name="/model/model.0/model.0.0/Conv_output_0" type="Add" version="opset1">
			<data auto_broadcast="numpy"/>
			<rt_info>
				<attribute name="fused_names" value="/model/model.0/model.0.0/Conv_output_0, Concat_35, Reshape_36" version="0"/>
			</rt_info>
			<input>
				<port id="0" precision="FP32">
					<dim>1</dim>
					<dim>16</dim>
					<dim>300</dim>
					<dim>400</dim>
				</port>
				<port id="1" precision="FP32">
					<dim>1</dim>
					<dim>16</dim>
					<dim>1</dim>
					<dim>1</dim>
				</port>
			</input>
			<output>
				<port id="2" names="/model/model.0/model.0.0/Conv_output_0" precision="FP32">
					<dim>1</dim>
					<dim>16</dim>
					<dim>300</dim>
					<dim>400</dim>
				</port>
			</output>
		</layer>
		<layer id="6" name="Constant_64" type="Const" version="opset1">
			<data element_type="f32" offset="644" shape="1" size="4"/>
			<rt_info>
				<attribute name="fused_names" value="Constant_64" version="0"/>
			</rt_info>
			<output>
				<port id="0" precision="FP32">
					<dim>1</dim>
				</port>
			</output>
		</layer>
		<layer id="7" name="/model/model.0/model.0.2/LeakyRelu_output_0" type="PReLU" version="opset1">
			<rt_info>
				<attribute name="fused_names" value="/model/model.0/model.0.2/LeakyRelu_output_0" version="0"/>
			</rt_info>
			<input>
				<port id="0" precision="FP32">
					<dim>1</dim>
					<dim>16</dim>
					<dim>300</dim>
					<dim>400</dim>
				</port>
				<port id="1" precision="FP32">
					<dim>1</dim>
				</port>
			</input>
			<output>
				<port id="2" names="/model/model.0/model.0.2/LeakyRelu_output_0" precision="FP32">
					<dim>1</dim>
					<dim>16</dim>
					<dim>300</dim>
					<dim>400</dim>
				</port>
			</output>
		</layer>
		<layer id="8" name="/model/model.0/model.0.3/MaxPool_output_0" type="MaxPool" version="opset8">
			<data auto_pad="explicit" axis="0" dilations="1, 1" index_element_type="i64" kernel="2, 2" pads_begin="0, 0" pads_end="0, 0" rounding_type="floor" strides="2, 2"/>
			<rt_info>
				<attribute name="fused_names" value="/model/model.0/model.0.3/MaxPool_output_0" version="0"/>
			</rt_info>
			<input>
				<port id="0" precision="FP32">
					<dim>1</dim>
					<dim>16</dim>
					<dim>300</dim>
					<dim>400</dim>
				</port>
			</input>
			<output>
				<port id="1" names="/model/model.0/model.0.3/MaxPool_output_0" precision="FP32">
					<dim>1</dim>
					<dim>16</dim>
					<dim>150</dim>
					<dim>200</dim>
				</port>
				<port id="2" precision="I64">
					<dim>1</dim>
					<dim>16</dim>
					<dim>150</dim>
					<dim>200</dim>
				</port>
			</output>
		</layer>
		<layer id="9" name="model.1.0.weight" type="Const" version="opset1">
			<data element_type="f32" offset="648" shape="32, 16, 3, 3" size="18432"/>
			<rt_info>
				<attribute name="fused_names" value="model.1.0.weight" version="0"/>
			</rt_info>
			<output>
				<port id="0" names="model.1.0.weight" precision="FP32">
					<dim>32</dim>
					<dim>16</dim>
					<dim>3</dim>
					<dim>3</dim>
				</port>
			</output>
		</layer>
		<layer id="10" name="Convolution_67" type="Convolution" version="opset1">
			<data auto_pad="explicit" dilations="1, 1" pads_begin="1, 1" pads_end="1, 1" strides="1, 1"/>
			<rt_info>
				<attribute name="fused_names" value="Convolution_67" version="0"/>
			</rt_info>
			<input>
				<port id="0" precision="FP32">
					<dim>1</dim>
					<dim>16</dim>
					<dim>150</dim>
					<dim>200</dim>
				</port>
				<port id="1" precision="FP32">
					<dim>32</dim>
					<dim>16</dim>
					<dim>3</dim>
					<dim>3</dim>
				</port>
			</input>
			<output>
				<port id="2" precision="FP32">
					<dim>1</dim>
					<dim>32</dim>
					<dim>150</dim>
					<dim>200</dim>
				</port>
			</output>
		</layer>
		<layer id="11" name="Reshape_87" type="Const" version="opset1">
			<data element_type="f32" offset="19080" shape="1, 32, 1, 1" size="128"/>
			<output>
				<port id="0" precision="FP32">
					<dim>1</dim>
					<dim>32</dim>
					<dim>1</dim>
					<dim>1</dim>
				</port>
			</output>
		</layer>
		<layer id="12" name="/model/model.1/model.1.0/Conv_output_0" type="Add" version="opset1">
			<data auto_broadcast="numpy"/>
			<rt_info>
				<attribute name="fused_names" value="/model/model.1/model.1.0/Conv_output_0, Concat_86, Reshape_87" version="0"/>
			</rt_info>
			<input>
				<port id="0" precision="FP32">
					<dim>1</dim>
					<dim>32</dim>
					<dim>150</dim>
					<dim>200</dim>
				</port>
				<port id="1" precision="FP32">
					<dim>1</dim>
					<dim>32</dim>
					<dim>1</dim>
					<dim>1</dim>
				</port>
			</input>
			<output>
				<port id="2" names="/model/model.1/model.1.0/Conv_output_0" precision="FP32">
					<dim>1</dim>
					<dim>32</dim>
					<dim>150</dim>
					<dim>200</dim>
				</port>
			</output>
		</layer>
		<layer id="13" name="Constant_115" type="Const" version="opset1">
			<data element_type="f32" offset="644" shape="1" size="4"/>
			<rt_info>
				<attribute name="fused_names" value="Constant_115" version="0"/>
			</rt_info>
			<output>
				<port id="0" precision="FP32">
					<dim>1</dim>
				</port>
			</output>
		</layer>
		<layer id="14" name="/model/model.1/model.1.1/LeakyRelu_output_0" type="PReLU" version="opset1">
			<rt_info>
				<attribute name="fused_names" value="/model/model.1/model.1.1/LeakyRelu_output_0" version="0"/>
			</rt_info>
			<input>
				<port id="0" precision="FP32">
					<dim>1</dim>
					<dim>32</dim>
					<dim>150</dim>
					<dim>200</dim>
				</port>
				<port id="1" precision="FP32">
					<dim>1</dim>
				</port>
			</input>
			<output>
				<port id="2" names="/model/model.1/model.1.1/LeakyRelu_output_0" precision="FP32">
					<dim>1</dim>
					<dim>32</dim>
					<dim>150</dim>
					<dim>200</dim>
				</port>
			</output>
		</layer>
		<layer id="15" name="/model/model.1/model.1.2/MaxPool_output_0" type="MaxPool" version="opset8">
			<data auto_pad="explicit" axis="0" dilations="1, 1" index_element_type="i64" kernel="2, 2" pads_begin="0, 0" pads_end="0, 0" rounding_type="floor" strides="2, 2"/>
			<rt_info>
				<attribute name="fused_names" value="/model/model.1/model.1.2/MaxPool_output_0" version="0"/>
			</rt_info>
			<input>
				<port id="0" precision="FP32">
					<dim>1</dim>
					<dim>32</dim>
					<dim>150</dim>
					<dim>200</dim>
				</port>
			</input>
			<output>
				<port id="1" names="/model/model.1/model.1.2/MaxPool_output_0" precision="FP32">
					<dim>1</dim>
					<dim>32</dim>
					<dim>75</dim>
					<dim>100</dim>
				</port>
				<port id="2" precision="I64">
					<dim>1</dim>
					<dim>32</dim>
					<dim>75</dim>
					<dim>100</dim>
				</port>
			</output>
		</layer>
		<layer id="16" name="model.2.0.weight" type="Const" version="opset1">
			<data element_type="f32" offset="19208" shape="64, 32, 3, 3" size="73728"/>
			<rt_info>
				<attribute name="fused_names" value="model.2.0.weight" version="0"/>
			</rt_info>
			<output>
				<port id="0" names="model.2.0.weight" precision="FP32">
					<dim>64</dim>
					<dim>32</dim>
					<dim>3</dim>
					<dim>3</dim>
				</port>
			</output>
		</layer>
		<layer id="17" name="Convolution_118" type="Convolution" version="opset1">
			<data auto_pad="explicit" dilations="1, 1" pads_begin="1, 1" pads_end="1, 1" strides="1, 1"/>
			<rt_info>
				<attribute name="fused_names" value="Convolution_118" version="0"/>
			</rt_info>
			<input>
				<port id="0" precision="FP32">
					<dim>1</dim>
					<dim>32</dim>
					<dim>75</dim>
					<dim>100</dim>
				</port>
				<port id="1" precision="FP32">
					<dim>64</dim>
					<dim>32</dim>
					<dim>3</dim>
					<dim>3</dim>
				</port>
			</input>
			<output>
				<port id="2" precision="FP32">
					<dim>1</dim>
					<dim>64</dim>
					<dim>75</dim>
					<dim>100</dim>
				</port>
			</output>
		</layer>
		<layer id="18" name="Reshape_138" type="Const" version="opset1">
			<data element_type="f32" offset="92936" shape="1, 64, 1, 1" size="256"/>
			<output>
				<port id="0" precision="FP32">
					<dim>1</dim>
					<dim>64</dim>
					<dim>1</dim>
					<dim>1</dim>
				</port>
			</output>
		</layer>
		<layer id="19" name="/model/model.2/model.2.0/Conv_output_0" type="Add" version="opset1">
			<data auto_broadcast="numpy"/>
			<rt_info>
				<attribute name="fused_names" value="/model/model.2/model.2.0/Conv_output_0, Concat_137, Reshape_138" version="0"/>
			</rt_info>
			<input>
				<port id="0" precision="FP32">
					<dim>1</dim>
					<dim>64</dim>
					<dim>75</dim>
					<dim>100</dim>
				</port>
				<port id="1" precision="FP32">
					<dim>1</dim>
					<dim>64</dim>
					<dim>1</dim>
					<dim>1</dim>
				</port>
			</input>
			<output>
				<port id="2" names="/model/model.2/model.2.0/Conv_output_0" precision="FP32">
					<dim>1</dim>
					<dim>64</dim>
					<dim>75</dim>
					<dim>100</dim>
				</port>
			</output>
		</layer>
		<layer id="20" name="Constant_166" type="Const" version="opset1">
			<data element_type="f32" offset="644" shape="1" size="4"/>
			<rt_info>
				<attribute name="fused_names" value="Constant_166" version="0"/>
			</rt_info>
			<output>
				<port id="0" precision="FP32">
					<dim>1</dim>
				</port>
			</output>
		</layer>
		<layer id="21" name="/model/model.2/model.2.1/LeakyRelu_output_0" type="PReLU" version="opset1">
			<rt_info>
				<attribute name="fused_names" value="/model/model.2/model.2.1/LeakyRelu_output_0" version="0"/>
			</rt_info>
			<input>
				<port id="0" precision="FP32">
					<dim>1</dim>
					<dim>64</dim>
					<dim>75</dim>
					<dim>100</dim>
				</port>
				<port id="1" precision="FP32">
					<dim>1</dim>
				</port>
			</input>
			<output>
				<port id="2" names="/model/model.2/model.2.1/LeakyRelu_output_0" precision="FP32">
					<dim>1</dim>
					<dim>64</dim>
					<dim>75</dim>
					<dim>100</dim>
				</port>
			</output>
		</layer>
		<layer id="22" name="/model/model.2/model.2.2/MaxPool_output_0" type="MaxPool" version="opset8">
			<data auto_pad="explicit" axis="0" dilations="1, 1" index_element_type="i64" kernel="2, 2" pads_begin="0, 0" pads_end="0, 0" rounding_type="floor" strides="2, 2"/>
			<rt_info>
				<attribute name="fused_names" value="/model/model.2/model.2.2/MaxPool_output_0" version="0"/>
			</rt_info>
			<input>
				<port id="0" precision="FP32">
					<dim>1</dim>
					<dim>64</dim>
					<dim>75</dim>
					<dim>100</dim>
				</port>
			</input>
			<output>
				<port id="1" names="/model/model.2/model.2.2/MaxPool_output_0" precision="FP32">
					<dim>1</dim>
					<dim>64</dim>
					<dim>37</dim>
					<dim>50</dim>
				</port>
				<port id="2" precision="I64">
					<dim>1</dim>
					<dim>64</dim>
					<dim>37</dim>
					<dim>50</dim>
				</port>
			</output>
		</layer>
		<layer id="23" name="model.3.0.weight" type="Const" version="opset1">
			<data element_type="f32" offset="93192" shape="128, 64, 3, 3" size="294912"/>
			<rt_info>
				<attribute name="fused_names" value="model.3.0.weight" version="0"/>
			</rt_info>
			<output>
				<port id="0" names="model.3.0.weight" precision="FP32">
					<dim>128</dim>
					<dim>64</dim>
					<dim>3</dim>
					<dim>3</dim>
				</port>
			</output>
		</layer>
		<layer id="24" name="/model/model.3/model.3.0/Conv_output_0" type="Convolution" version="opset1">
			<data auto_pad="explicit" dilations="1, 1" pads_begin="1, 1" pads_end="1, 1" strides="1, 1"/>
			<rt_info>
				<attribute name="fused_names" value="/model/model.3/model.3.0/Conv_output_0" version="0"/>
			</rt_info>
			<input>
				<port id="0" precision="FP32">
					<dim>1</dim>
					<dim>64</dim>
					<dim>37</dim>
					<dim>50</dim>
				</port>
				<port id="1" precision="FP32">
					<dim>128</dim>
					<dim>64</dim>
					<dim>3</dim>
					<dim>3</dim>
				</port>
			</input>
			<output>
				<port id="2" names="/model/model.3/model.3.0/Conv_output_0" precision="FP32">
					<dim>1</dim>
					<dim>128</dim>
					<dim>37</dim>
					<dim>50</dim>
				</port>
			</output>
		</layer>
		<layer id="25" name="Constant_171" type="Const" version="opset1">
			<data element_type="f32" offset="644" shape="1" size="4"/>
			<rt_info>
				<attribute name="fused_names" value="Constant_171" version="0"/>
			</rt_info>
			<output>
				<port id="0" precision="FP32">
					<dim>1</dim>
				</port>
			</output>
		</layer>
		<layer id="26" name="/model/model.3/model.3.1/LeakyRelu_output_0" type="PReLU" version="opset1">
			<rt_info>
				<attribute name="fused_names" value="/model/model.3/model.3.1/LeakyRelu_output_0" version="0"/>
			</rt_info>
			<input>
				<port id="0" precision="FP32">
					<dim>1</dim>
					<dim>128</dim>
					<dim>37</dim>
					<dim>50</dim>
				</port>
				<port id="1" precision="FP32">
					<dim>1</dim>
				</port>
			</input>
			<output>
				<port id="2" names="/model/model.3/model.3.1/LeakyRelu_output_0" precision="FP32">
					<dim>1</dim>
					<dim>128</dim>
					<dim>37</dim>
					<dim>50</dim>
				</port>
			</output>
		</layer>
		<layer id="27" name="onnx::Conv_106" type="Const" version="opset1">
			<data element_type="f32" offset="388104" shape="128, 128, 3, 3" size="589824"/>
			<rt_info>
				<attribute name="fused_names" value="onnx::Conv_106" version="0"/>
			</rt_info>
			<output>
				<port id="0" names="onnx::Conv_106" precision="FP32">
					<dim>128</dim>
					<dim>128</dim>
					<dim>3</dim>
					<dim>3</dim>
				</port>
			</output>
		</layer>
		<layer id="28" name="Convolution_173" type="Convolution" version="opset1">
			<data auto_pad="explicit" dilations="1, 1" pads_begin="1, 1" pads_end="1, 1" strides="1, 1"/>
			<rt_info>
				<attribute name="fused_names" value="Convolution_173" version="0"/>
			</rt_info>
			<input>
				<port id="0" precision="FP32">
					<dim>1</dim>
					<dim>128</dim>
					<dim>37</dim>
					<dim>50</dim>
				</port>
				<port id="1" precision="FP32">
					<dim>128</dim>
					<dim>128</dim>
					<dim>3</dim>
					<dim>3</dim>
				</port>
			</input>
			<output>
				<port id="2" precision="FP32">
					<dim>1</dim>
					<dim>128</dim>
					<dim>37</dim>
					<dim>50</dim>
				</port>
			</output>
		</layer>
		<layer id="29" name="Reshape_193" type="Const" version="opset1">
			<data element_type="f32" offset="977928" shape="1, 128, 1, 1" size="512"/>
			<output>
				<port id="0" precision="FP32">
					<dim>1</dim>
					<dim>128</dim>
					<dim>1</dim>
					<dim>1</dim>
				</port>
			</output>
		</layer>
		<layer id="30" name="/model/model.4/model.4.0/Conv_output_0" type="Add" version="opset1">
			<data auto_broadcast="numpy"/>
			<rt_info>
				<attribute name="fused_names" value="/model/model.4/model.4.0/Conv_output_0, Concat_192, Reshape_193" version="0"/>
			</rt_info>
			<input>
				<port id="0" precision="FP32">
					<dim>1</dim>
					<dim>128</dim>
					<dim>37</dim>
					<dim>50</dim>
				</port>
				<port id="1" precision="FP32">
					<dim>1</dim>
					<dim>128</dim>
					<dim>1</dim>
					<dim>1</dim>
				</port>
			</input>
			<output>
				<port id="2" names="/model/model.4/model.4.0/Conv_output_0" precision="FP32">
					<dim>1</dim>
					<dim>128</dim>
					<dim>37</dim>
					<dim>50</dim>
				</port>
			</output>
		</layer>
		<layer id="31" name="Constant_221" type="Const" version="opset1">
			<data element_type="f32" offset="644" shape="1" size="4"/>
			<rt_info>
				<attribute name="fused_names" value="Constant_221" version="0"/>
			</rt_info>
			<output>
				<port id="0" precision="FP32">
					<dim>1</dim>
				</port>
			</output>
		</layer>
		<layer id="32" name="/model/model.4/model.4.2/LeakyRelu_output_0" type="PReLU" version="opset1">
			<rt_info>
				<attribute name="fused_names" value="/model/model.4/model.4.2/LeakyRelu_output_0" version="0"/>
			</rt_info>
			<input>
				<port id="0" precision="FP32">
					<dim>1</dim>
					<dim>128</dim>
					<dim>37</dim>
					<dim>50</dim>
				</port>
				<port id="1" precision="FP32">
					<dim>1</dim>
				</port>
			</input>
			<output>
				<port id="2" names="/model/model.4/model.4.2/LeakyRelu_output_0" precision="FP32">
					<dim>1</dim>
					<dim>128</dim>
					<dim>37</dim>
					<dim>50</dim>
				</port>
			</output>
		</layer>
		<layer id="33" name="model.5.0.weight" type="Const" version="opset1">
			<data element_type="f32" offset="978440" shape="128, 128, 3, 3" size="589824"/>
			<rt_info>
				<attribute name="fused_names" value="model.5.0.weight" version="0"/>
			</rt_info>
			<output>
				<port id="0" names="model.5.0.weight" precision="FP32">
					<dim>128</dim>
					<dim>128</dim>
					<dim>3</dim>
					<dim>3</dim>
				</port>
			</output>
		</layer>
		<layer id="34" name="Convolution_223" type="Convolution" version="opset1">
			<data auto_pad="explicit" dilations="1, 1" pads_begin="1, 1" pads_end="1, 1" strides="1, 1"/>
			<rt_info>
				<attribute name="fused_names" value="Convolution_223" version="0"/>
			</rt_info>
			<input>
				<port id="0" precision="FP32">
					<dim>1</dim>
					<dim>128</dim>
					<dim>37</dim>
					<dim>50</dim>
				</port>
				<port id="1" precision="FP32">
					<dim>128</dim>
					<dim>128</dim>
					<dim>3</dim>
					<dim>3</dim>
				</port>
			</input>
			<output>
				<port id="2" precision="FP32">
					<dim>1</dim>
					<dim>128</dim>
					<dim>37</dim>
					<dim>50</dim>
				</port>
			</output>
		</layer>
		<layer id="35" name="Reshape_243" type="Const" version="opset1">
			<data element_type="f32" offset="1568264" shape="1, 128, 1, 1" size="512"/>
			<output>
				<port id="0" precision="FP32">
					<dim>1</dim>
					<dim>128</dim>
					<dim>1</dim>
					<dim>1</dim>
				</port>
			</output>
		</layer>
		<layer id="36" name="/model/model.5/model.5.0/Conv_output_0" type="Add" version="opset1">
			<data auto_broadcast="numpy"/>
			<rt_info>
				<attribute name="fused_names" value="/model/model.5/model.5.0/Conv_output_0, Concat_242, Reshape_243" version="0"/>
			</rt_info>
			<input>
				<port id="0" precision="FP32">
					<dim>1</dim>
					<dim>128</dim>
					<dim>37</dim>
					<dim>50</dim>
				</port>
				<port id="1" precision="FP32">
					<dim>1</dim>
					<dim>128</dim>
					<dim>1</dim>
					<dim>1</dim>
				</port>
			</input>
			<output>
				<port id="2" names="/model/model.5/model.5.0/Conv_output_0" precision="FP32">
					<dim>1</dim>
					<dim>128</dim>
					<dim>37</dim>
					<dim>50</dim>
				</port>
			</output>
		</layer>
		<layer id="37" name="Constant_271" type="Const" version="opset1">
			<data element_type="f32" offset="644" shape="1" size="4"/>
			<rt_info>
				<attribute name="fused_names" value="Constant_271" version="0"/>
			</rt_info>
			<output>
				<port id="0" precision="FP32">
					<dim>1</dim>
				</port>
			</output>
		</layer>
		<layer id="38" name="/model/model.5/model.5.1/LeakyRelu_output_0" type="PReLU" version="opset1">
			<rt_info>
				<attribute name="fused_names" value="/model/model.5/model.5.1/LeakyRelu_output_0" version="0"/>
			</rt_info>
			<input>
				<port id="0" precision="FP32">
					<dim>1</dim>
					<dim>128</dim>
					<dim>37</dim>
					<dim>50</dim>
				</port>
				<port id="1" precision="FP32">
					<dim>1</dim>
				</port>
			</input>
			<output>
				<port id="2" names="/model/model.5/model.5.1/LeakyRelu_output_0" precision="FP32">
					<dim>1</dim>
					<dim>128</dim>
					<dim>37</dim>
					<dim>50</dim>
				</port>
			</output>
		</layer>
		<layer id="39" name="model.6.weight" type="Const" version="opset1">
			<data element_type="f32" offset="1568776" shape="9, 128, 1, 1" size="4608"/>
			<rt_info>
				<attribute name="fused_names" value="model.6.weight" version="0"/>
			</rt_info>
			<output>
				<port id="0" names="model.6.weight" precision="FP32">
					<dim>9</dim>
					<dim>128</dim>
					<dim>1</dim>
					<dim>1</dim>
				</port>
			</output>
		</layer>
		<layer id="40" name="Convolution_273" type="Convolution" version="opset1">
			<data auto_pad="explicit" dilations="1, 1" pads_begin="0, 0" pads_end="0, 0" strides="1, 1"/>
			<rt_info>
				<attribute name="fused_names" value="Convolution_273" version="0"/>
			</rt_info>
			<input>
				<port id="0" precision="FP32">
					<dim>1</dim>
					<dim>128</dim>
					<dim>37</dim>
					<dim>50</dim>
				</port>
				<port id="1" precision="FP32">
					<dim>9</dim>
					<dim>128</dim>
					<dim>1</dim>
					<dim>1</dim>
				</port>
			</input>
			<output>
				<port id="2" precision="FP32">
					<dim>1</dim>
					<dim>9</dim>
					<dim>37</dim>
					<dim>50</dim>
				</port>
			</output>
		</layer>
		<layer id="41" name="Reshape_293" type="Const" version="opset1">
			<data element_type="f32" offset="1573384" shape="1, 9, 1, 1" size="36"/>
			<output>
				<port id="0" precision="FP32">
					<dim>1</dim>
					<dim>9</dim>
					<dim>1</dim>
					<dim>1</dim>
				</port>
			</output>
		</layer>
		<layer id="42" name="/model/model.6/Conv_output_0" type="Add" version="opset1">
			<data auto_broadcast="numpy"/>
			<rt_info>
				<attribute name="fused_names" value="/model/model.6/Conv_output_0, Concat_292, Reshape_293" version="0"/>
			</rt_info>
			<input>
				<port id="0" precision="FP32">
					<dim>1</dim>
					<dim>9</dim>
					<dim>37</dim>
					<dim>50</dim>
				</port>
				<port id="1" precision="FP32">
					<dim>1</dim>
					<dim>9</dim>
					<dim>1</dim>
					<dim>1</dim>
				</port>
			</input>
			<output>
				<port id="2" names="/model/model.6/Conv_output_0" precision="FP32">
					<dim>1</dim>
					<dim>9</dim>
					<dim>37</dim>
					<dim>50</dim>
				</port>
			</output>
		</layer>
		<layer id="43" name="Constant_1293" type="Const" version="opset1">
			<data element_type="i64" offset="1573420" shape="2" size="16"/>
			<rt_info>
				<attribute name="fused_names" value="/Slice_1_output_0" version="0"/>
			</rt_info>
			<output>
				<port id="0" precision="I64">
					<dim>2</dim>
				</port>
			</output>
		</layer>
		<layer id="44" name="Constant_1296" type="Const" version="opset1">
			<data element_type="i64" offset="1573436" shape="2" size="16"/>
			<rt_info>
				<attribute name="fused_names" value="/Slice_1_output_0" version="0"/>
			</rt_info>
			<output>
				<port id="0" precision="I64">
					<dim>2</dim>
				</port>
			</output>
		</layer>
		<layer id="45" name="Constant_1299" type="Const" version="opset1">
			<data element_type="i64" offset="1573452" shape="2" size="16"/>
			<rt_info>
				<attribute name="fused_names" value="/Slice_1_output_0" version="0"/>
			</rt_info>
			<output>
				<port id="0" precision="I64">
					<dim>2</dim>
				</port>
			</output>
		</layer>
		<layer id="46" name="/Slice_1_output_0" type="StridedSlice" version="opset1">
			<data begin_mask="1, 0" ellipsis_mask="" end_mask="1, 0" new_axis_mask="" shrink_axis_mask=""/>
			<rt_info>
				<attribute name="fused_names" value="/Slice_1_output_0" version="0"/>
			</rt_info>
			<input>
				<port id="0" precision="FP32">
					<dim>1</dim>
					<dim>9</dim>
					<dim>37</dim>
					<dim>50</dim>
				</port>
				<port id="1" precision="I64">
					<dim>2</dim>
				</port>
				<port id="2" precision="I64">
					<dim>2</dim>
				</port>
				<port id="3" precision="I64">
					<dim>2</dim>
				</port>
			</input>
			<output>
				<port id="4" names="/Slice_1_output_0" precision="FP32">
					<dim>1</dim>
					<dim>1</dim>
					<dim>37</dim>
					<dim>50</dim>
				</port>
			</output>
		</layer>
		<layer id="47" name="/Sigmoid_output_0" type="Sigmoid" version="opset1">
			<rt_info>
				<attribute name="fused_names" value="/Sigmoid_output_0" version="0"/>
			</rt_info>
			<input>
				<port id="0" precision="FP32">
					<dim>1</dim>
					<dim>1</dim>
					<dim>37</dim>
					<dim>50</dim>
				</port>
			</input>
			<output>
				<port id="1" names="/Sigmoid_output_0" precision="FP32">
					<dim>1</dim>
					<dim>1</dim>
					<dim>37</dim>
					<dim>50</dim>
				</port>
			</output>
		</layer>
		<layer id="48" name="/Mul_output_0" type="Multiply" version="opset1">
			<data auto_broadcast="numpy"/>
			<rt_info>
				<attribute name="fused_names" value="/Mul_output_0, /Reciprocal_output_0" version="0"/>
			</rt_info>
			<input>
				<port id="0" precision="FP32">
					<dim>1</dim>
					<dim>1</dim>
					<dim>1</dim>
					<dim>1</dim>
				</port>
				<port id="1" precision="FP32">
					<dim>1</dim>
					<dim>1</dim>
					<dim>37</dim>
					<dim>50</dim>
				</port>
			</input>
			<output>
				<port id="2" names="/Mul_output_0" precision="FP32">
					<dim>1</dim>
					<dim>1</dim>
					<dim>37</dim>
					<dim>50</dim>
				</port>
			</output>
		</layer>
		<layer id="49" name="Constant_1402" type="Const" version="opset1">
			<data element_type="f32" offset="1573468" shape="1, 1, 37, 50" size="7400"/>
			<output>
				<port id="0" precision="FP32">
					<dim>1</dim>
					<dim>1</dim>
					<dim>37</dim>
					<dim>50</dim>
				</port>
			</output>
		</layer>
		<layer id="50" name="/Add_output_0" type="Add" version="opset1">
			<data auto_broadcast="numpy"/>
			<rt_info>
				<attribute name="fused_names" value="/Add_output_0" version="0"/>
			</rt_info>
			<input>
				<port id="0" precision="FP32">
					<dim>1</dim>
					<dim>1</dim>
					<dim>37</dim>
					<dim>50</dim>
				</port>
				<port id="1" precision="FP32">
					<dim>1</dim>
					<dim>1</dim>
					<dim>37</dim>
					<dim>50</dim>
				</port>
			</input>
			<output>
				<port id="2" names="/Add_output_0" precision="FP32">
					<dim>1</dim>
					<dim>1</dim>
					<dim>37</dim>
					<dim>50</dim>
				</port>
			</output>
		</layer>
		<layer id="51" name="Constant_1403" type="Const" version="opset1">
			<data element_type="f32" offset="1580868" shape="1, 1, 1, 1" size="4"/>
			<output>
				<port id="0" precision="FP32">
					<dim>1</dim>
					<dim>1</dim>
					<dim>1</dim>
					<dim>1</dim>
				</port>
			</output>
		</layer>
		<layer id="52" name="Constant_1305" type="Const" version="opset1">
			<data element_type="i64" offset="1573436" shape="2" size="16"/>
			<rt_info>
				<attribute name="fused_names" value="/Slice_2_output_0" version="0"/>
			</rt_info>
			<output>
				<port id="0" precision="I64">
					<dim>2</dim>
				</port>
			</output>
		</layer>
		<layer id="53" name="Constant_1308" type="Const" version="opset1">
			<data element_type="i64" offset="1580872" shape="2" size="16"/>
			<rt_info>
				<attribute name="fused_names" value="/Slice_2_output_0" version="0"/>
			</rt_info>
			<output>
				<port id="0" precision="I64">
					<dim>2</dim>
				</port>
			</output>
		</layer>
		<layer id="54" name="Constant_1311" type="Const" version="opset1">
			<data element_type="i64" offset="1573452" shape="2" size="16"/>
			<rt_info>
				<attribute name="fused_names" value="/Slice_2_output_0" version="0"/>
			</rt_info>
			<output>
				<port id="0" precision="I64">
					<dim>2</dim>
				</port>
			</output>
		</layer>
		<layer id="55" name="/Slice_2_output_0" type="StridedSlice" version="opset1">
			<data begin_mask="1, 0" ellipsis_mask="" end_mask="1, 0" new_axis_mask="" shrink_axis_mask=""/>
			<rt_info>
				<attribute name="fused_names" value="/Slice_2_output_0" version="0"/>
			</rt_info>
			<input>
				<port id="0" precision="FP32">
					<dim>1</dim>
					<dim>9</dim>
					<dim>37</dim>
					<dim>50</dim>
				</port>
				<port id="1" precision="I64">
					<dim>2</dim>
				</port>
				<port id="2" precision="I64">
					<dim>2</dim>
				</port>
				<port id="3" precision="I64">
					<dim>2</dim>
				</port>
			</input>
			<output>
				<port id="4" names="/Slice_2_output_0" precision="FP32">
					<dim>1</dim>
					<dim>1</dim>
					<dim>37</dim>
					<dim>50</dim>
				</port>
			</output>
		</layer>
		<layer id="56" name="/Sigmoid_1_output_0" type="Sigmoid" version="opset1">
			<rt_info>
				<attribute name="fused_names" value="/Sigmoid_1_output_0" version="0"/>
			</rt_info>
			<input>
				<port id="0" precision="FP32">
					<dim>1</dim>
					<dim>1</dim>
					<dim>37</dim>
					<dim>50</dim>
				</port>
			</input>
			<output>
				<port id="1" names="/Sigmoid_1_output_0" precision="FP32">
					<dim>1</dim>
					<dim>1</dim>
					<dim>37</dim>
					<dim>50</dim>
				</port>
			</output>
		</layer>
		<layer id="57" name="/Mul_1_output_0" type="Multiply" version="opset1">
			<data auto_broadcast="numpy"/>
			<rt_info>
				<attribute name="fused_names" value="/Mul_1_output_0, /Reciprocal_1_output_0" version="0"/>
			</rt_info>
			<input>
				<port id="0" precision="FP32">
					<dim>1</dim>
					<dim>1</dim>
					<dim>1</dim>
					<dim>1</dim>
				</port>
				<port id="1" precision="FP32">
					<dim>1</dim>
					<dim>1</dim>
					<dim>37</dim>
					<dim>50</dim>
				</port>
			</input>
			<output>
				<port id="2" names="/Mul_1_output_0" precision="FP32">
					<dim>1</dim>
					<dim>1</dim>
					<dim>37</dim>
					<dim>50</dim>
				</port>
			</output>
		</layer>
		<layer id="58" name="Constant_1404" type="Const" version="opset1">
			<data element_type="f32" offset="1580888" shape="1, 1, 37, 50" size="7400"/>
			<output>
				<port id="0" precision="FP32">
					<dim>1</dim>
					<dim>1</dim>
					<dim>37</dim>
					<dim>50</dim>
				</port>
			</output>
		</layer>
		<layer id="59" name="/Add_1_output_0" type="Add" version="opset1">
			<data auto_broadcast="numpy"/>
			<rt_info>
				<attribute name="fused_names" value="/Add_1_output_0" version="0"/>
			</rt_info>
			<input>
				<port id="0" precision="FP32">
					<dim>1</dim>
					<dim>1</dim>
					<dim>37</dim>
					<dim>50</dim>
				</port>
				<port id="1" precision="FP32">
					<dim>1</dim>
					<dim>1</dim>
					<dim>37</dim>
					<dim>50</dim>
				</port>
			</input>
			<output>
				<port id="2" names="/Add_1_output_0" precision="FP32">
					<dim>1</dim>
					<dim>1</dim>
					<dim>37</dim>
					<dim>50</dim>
				</port>
			</output>
		</layer>
		<layer id="60" name="Constant_1405" type="Const" version="opset1">
			<data element_type="f32" offset="1588288" shape="1, 1, 1, 1" size="4"/>
			<output>
				<port id="0" precision="FP32">
					<dim>1</dim>
					<dim>1</dim>
					<dim>1</dim>
					<dim>1</dim>
				</port>
			</output>
		</layer>
		<layer id="61" name="Constant_1317" type="Const" version="opset1">
			<data element_type="i64" offset="1580872" shape="2" size="16"/>
			<rt_info>
				<attribute name="fused_names" value="/Slice_3_output_0" version="0"/>
			</rt_info>
			<output>
				<port id="0" precision="I64">
					<dim>2</dim>
				</port>
			</output>
		</layer>
		<layer id="62" name="Constant_1320" type="Const" version="opset1">
			<data element_type="i64" offset="1588292" shape="2" size="16"/>
			<rt_info>
				<attribute name="fused_names" value="/Slice_3_output_0" version="0"/>
			</rt_info>
			<output>
				<port id="0" precision="I64">
					<dim>2</dim>
				</port>
			</output>
		</layer>
		<layer id="63" name="Constant_1323" type="Const" version="opset1">
			<data element_type="i64" offset="1573452" shape="2" size="16"/>
			<rt_info>
				<attribute name="fused_names" value="/Slice_3_output_0" version="0"/>
			</rt_info>
			<output>
				<port id="0" precision="I64">
					<dim>2</dim>
				</port>
			</output>
		</layer>
		<layer id="64" name="/Slice_3_output_0" type="StridedSlice" version="opset1">
			<data begin_mask="1, 0" ellipsis_mask="" end_mask="1, 0" new_axis_mask="" shrink_axis_mask=""/>
			<rt_info>
				<attribute name="fused_names" value="/Slice_3_output_0" version="0"/>
			</rt_info>
			<input>
				<port id="0" precision="FP32">
					<dim>1</dim>
					<dim>9</dim>
					<dim>37</dim>
					<dim>50</dim>
				</port>
				<port id="1" precision="I64">
					<dim>2</dim>
				</port>
				<port id="2" precision="I64">
					<dim>2</dim>
				</port>
				<port id="3" precision="I64">
					<dim>2</dim>
				</port>
			</input>
			<output>
				<port id="4" names="/Slice_3_output_0" precision="FP32">
					<dim>1</dim>
					<dim>1</dim>
					<dim>37</dim>
					<dim>50</dim>
				</port>
			</output>
		</layer>
		<layer id="65" name="/Exp_output_0" type="Exp" version="opset1">
			<rt_info>
				<attribute name="fused_names" value="/Exp_output_0" version="0"/>
			</rt_info>
			<input>
				<port id="0" precision="FP32">
					<dim>1</dim>
					<dim>1</dim>
					<dim>37</dim>
					<dim>50</dim>
				</port>
			</input>
			<output>
				<port id="1" names="/Exp_output_0" precision="FP32">
					<dim>1</dim>
					<dim>1</dim>
					<dim>37</dim>
					<dim>50</dim>
				</port>
			</output>
		</layer>
		<layer id="66" name="/Mul_2_output_0" type="Multiply" version="opset1">
			<data auto_broadcast="numpy"/>
			<rt_info>
				<attribute name="fused_names" value="/Mul_2_output_0" version="0"/>
			</rt_info>
			<input>
				<port id="0" precision="FP32">
					<dim>1</dim>
					<dim>1</dim>
					<dim>1</dim>
					<dim>1</dim>
				</port>
				<port id="1" precision="FP32">
					<dim>1</dim>
					<dim>1</dim>
					<dim>37</dim>
					<dim>50</dim>
				</port>
			</input>
			<output>
				<port id="2" names="/Mul_2_output_0" precision="FP32">
					<dim>1</dim>
					<dim>1</dim>
					<dim>37</dim>
					<dim>50</dim>
				</port>
			</output>
		</layer>
		<layer id="67" name="Constant_1406" type="Const" version="opset1">
			<data element_type="f32" offset="1588288" shape="1, 1, 1, 1" size="4"/>
			<output>
				<port id="0" precision="FP32">
					<dim>1</dim>
					<dim>1</dim>
					<dim>1</dim>
					<dim>1</dim>
				</port>
			</output>
		</layer>
		<layer id="68" name="Constant_1329" type="Const" version="opset1">
			<data element_type="i64" offset="1588292" shape="2" size="16"/>
			<rt_info>
				<attribute name="fused_names" value="/Slice_4_output_0" version="0"/>
			</rt_info>
			<output>
				<port id="0" precision="I64">
					<dim>2</dim>
				</port>
			</output>
		</layer>
		<layer id="69" name="Constant_1332" type="Const" version="opset1">
			<data element_type="i64" offset="1588308" shape="2" size="16"/>
			<rt_info>
				<attribute name="fused_names" value="/Slice_4_output_0" version="0"/>
			</rt_info>
			<output>
				<port id="0" precision="I64">
					<dim>2</dim>
				</port>
			</output>
		</layer>
		<layer id="70" name="Constant_1335" type="Const" version="opset1">
			<data element_type="i64" offset="1573452" shape="2" size="16"/>
			<rt_info>
				<attribute name="fused_names" value="/Slice_4_output_0" version="0"/>
			</rt_info>
			<output>
				<port id="0" precision="I64">
					<dim>2</dim>
				</port>
			</output>
		</layer>
		<layer id="71" name="/Slice_4_output_0" type="StridedSlice" version="opset1">
			<data begin_mask="1, 0" ellipsis_mask="" end_mask="1, 0" new_axis_mask="" shrink_axis_mask=""/>
			<rt_info>
				<attribute name="fused_names" value="/Slice_4_output_0" version="0"/>
			</rt_info>
			<input>
				<port id="0" precision="FP32">
					<dim>1</dim>
					<dim>9</dim>
					<dim>37</dim>
					<dim>50</dim>
				</port>
				<port id="1" precision="I64">
					<dim>2</dim>
				</port>
				<port id="2" precision="I64">
					<dim>2</dim>
				</port>
				<port id="3" precision="I64">
					<dim>2</dim>
				</port>
			</input>
			<output>
				<port id="4" names="/Slice_4_output_0" precision="FP32">
					<dim>1</dim>
					<dim>1</dim>
					<dim>37</dim>
					<dim>50</dim>
				</port>
			</output>
		</layer>
		<layer id="72" name="/Exp_1_output_0" type="Exp" version="opset1">
			<rt_info>
				<attribute name="fused_names" value="/Exp_1_output_0" version="0"/>
			</rt_info>
			<input>
				<port id="0" precision="FP32">
					<dim>1</dim>
					<dim>1</dim>
					<dim>37</dim>
					<dim>50</dim>
				</port>
			</input>
			<output>
				<port id="1" names="/Exp_1_output_0" precision="FP32">
					<dim>1</dim>
					<dim>1</dim>
					<dim>37</dim>
					<dim>50</dim>
				</port>
			</output>
		</layer>
		<layer id="73" name="/Mul_3_output_0" type="Multiply" version="opset1">
			<data auto_broadcast="numpy"/>
			<rt_info>
				<attribute name="fused_names" value="/Mul_3_output_0" version="0"/>
			</rt_info>
			<input>
				<port id="0" precision="FP32">
					<dim>1</dim>
					<dim>1</dim>
					<dim>1</dim>
					<dim>1</dim>
				</port>
				<port id="1" precision="FP32">
					<dim>1</dim>
					<dim>1</dim>
					<dim>37</dim>
					<dim>50</dim>
				</port>
			</input>
			<output>
				<port id="2" names="/Mul_3_output_0" precision="FP32">
					<dim>1</dim>
					<dim>1</dim>
					<dim>37</dim>
					<dim>50</dim>
				</port>
			</output>
		</layer>
		<layer id="74" name="Constant_1341" type="Const" version="opset1">
			<data element_type="i64" offset="1588308" shape="2" size="16"/>
			<rt_info>
				<attribute name="fused_names" value="/Slice_5_output_0" version="0"/>
			</rt_info>
			<output>
				<port id="0" precision="I64">
					<dim>2</dim>
				</port>
			</output>
		</layer>
		<layer id="75" name="Constant_1344" type="Const" version="opset1">
			<data element_type="i64" offset="1588324" shape="2" size="16"/>
			<rt_info>
				<attribute name="fused_names" value="/Slice_5_output_0" version="0"/>
			</rt_info>
			<output>
				<port id="0" precision="I64">
					<dim>2</dim>
				</port>
			</output>
		</layer>
		<layer id="76" name="Constant_1347" type="Const" version="opset1">
			<data element_type="i64" offset="1573452" shape="2" size="16"/>
			<rt_info>
				<attribute name="fused_names" value="/Slice_5_output_0" version="0"/>
			</rt_info>
			<output>
				<port id="0" precision="I64">
					<dim>2</dim>
				</port>
			</output>
		</layer>
		<layer id="77" name="/Slice_5_output_0" type="StridedSlice" version="opset1">
			<data begin_mask="1, 0" ellipsis_mask="" end_mask="1, 0" new_axis_mask="" shrink_axis_mask=""/>
			<rt_info>
				<attribute name="fused_names" value="/Slice_5_output_0" version="0"/>
			</rt_info>
			<input>
				<port id="0" precision="FP32">
					<dim>1</dim>
					<dim>9</dim>
					<dim>37</dim>
					<dim>50</dim>
				</port>
				<port id="1" precision="I64">
					<dim>2</dim>
				</port>
				<port id="2" precision="I64">
					<dim>2</dim>
				</port>
				<port id="3" precision="I64">
					<dim>2</dim>
				</port>
			</input>
			<output>
				<port id="4" names="/Slice_5_output_0" precision="FP32">
					<dim>1</dim>
					<dim>1</dim>
					<dim>37</dim>
					<dim>50</dim>
				</port>
			</output>
		</layer>
		<layer id="78" name="/Sigmoid_2_output_0" type="Sigmoid" version="opset1">
			<rt_info>
				<attribute name="fused_names" value="/Sigmoid_2_output_0" version="0"/>
			</rt_info>
			<input>
				<port id="0" precision="FP32">
					<dim>1</dim>
					<dim>1</dim>
					<dim>37</dim>
					<dim>50</dim>
				</port>
			</input>
			<output>
				<port id="1" names="/Sigmoid_2_output_0" precision="FP32">
					<dim>1</dim>
					<dim>1</dim>
					<dim>37</dim>
					<dim>50</dim>
				</port>
			</output>
		</layer>
		<layer id="79" name="Constant_1353" type="Const" version="opset1">
			<data element_type="i64" offset="1588324" shape="2" size="16"/>
			<rt_info>
				<attribute name="fused_names" value="/Slice_output_0" version="0"/>
			</rt_info>
			<output>
				<port id="0" precision="I64">
					<dim>2</dim>
				</port>
			</output>
		</layer>
		<layer id="80" name="Constant_1356" type="Const" version="opset1">
			<data element_type="i64" offset="1588340" shape="2" size="16"/>
			<rt_info>
				<attribute name="fused_names" value="/Slice_output_0" version="0"/>
			</rt_info>
			<output>
				<port id="0" precision="I64">
					<dim>2</dim>
				</port>
			</output>
		</layer>
		<layer id="81" name="Constant_1359" type="Const" version="opset1">
			<data element_type="i64" offset="1573452" shape="2" size="16"/>
			<rt_info>
				<attribute name="fused_names" value="/Slice_output_0" version="0"/>
			</rt_info>
			<output>
				<port id="0" precision="I64">
					<dim>2</dim>
				</port>
			</output>
		</layer>
		<layer id="82" name="/Slice_output_0" type="StridedSlice" version="opset1">
			<data begin_mask="1, 0" ellipsis_mask="" end_mask="1, 0" new_axis_mask="" shrink_axis_mask=""/>
			<rt_info>
				<attribute name="fused_names" value="/Slice_output_0" version="0"/>
			</rt_info>
			<input>
				<port id="0" precision="FP32">
					<dim>1</dim>
					<dim>9</dim>
					<dim>37</dim>
					<dim>50</dim>
				</port>
				<port id="1" precision="I64">
					<dim>2</dim>
				</port>
				<port id="2" precision="I64">
					<dim>2</dim>
				</port>
				<port id="3" precision="I64">
					<dim>2</dim>
				</port>
			</input>
			<output>
				<port id="4" names="/Slice_output_0" precision="FP32">
					<dim>1</dim>
					<dim>4</dim>
					<dim>37</dim>
					<dim>50</dim>
				</port>
			</output>
		</layer>
		<layer id="83" name="/Softmax_output_0" type="SoftMax" version="opset8">
			<data axis="1"/>
			<rt_info>
				<attribute name="fused_names" value="/Softmax_output_0" version="0"/>
			</rt_info>
			<input>
				<port id="0" precision="FP32">
					<dim>1</dim>
					<dim>4</dim>
					<dim>37</dim>
					<dim>50</dim>
				</port>
			</input>
			<output>
				<port id="1" names="/Softmax_output_0" precision="FP32">
					<dim>1</dim>
					<dim>4</dim>
					<dim>37</dim>
					<dim>50</dim>
				</port>
			</output>
		</layer>
		<layer id="84" name="Constant_372" type="Const" version="opset1">
			<data element_type="i64" offset="1588356" shape="" size="8"/>
			<rt_info>
				<attribute name="fused_names" value="Constant_372" version="0"/>
			</rt_info>
			<output>
				<port id="0" precision="I64"/>
			</output>
		</layer>
		<layer id="85" name="/Constant_28_output_0" type="Const" version="opset1">
			<data element_type="i64" offset="1588364" shape="4" size="32"/>
			<rt_info>
				<attribute name="fused_names" value="/Constant_28_output_0" version="0"/>
			</rt_info>
			<output>
				<port id="0" names="/Constant_28_output_0" precision="I64">
					<dim>4</dim>
				</port>
			</output>
		</layer>
		<layer id="86" name="/Split_output_3" type="VariadicSplit" version="opset1">
			<rt_info>
				<attribute name="fused_names" value="/Split_output_3" version="0"/>
			</rt_info>
			<input>
				<port id="0" precision="FP32">
					<dim>1</dim>
					<dim>4</dim>
					<dim>37</dim>
					<dim>50</dim>
				</port>
				<port id="1" precision="I64"/>
				<port id="2" precision="I64">
					<dim>4</dim>
				</port>
			</input>
			<output>
				<port id="3" names="/Split_output_0" precision="FP32">
					<dim>1</dim>
					<dim>1</dim>
					<dim>37</dim>
					<dim>50</dim>
				</port>
				<port id="4" names="/Split_output_1" precision="FP32">
					<dim>1</dim>
					<dim>1</dim>
					<dim>37</dim>
					<dim>50</dim>
				</port>
				<port id="5" names="/Split_output_2" precision="FP32">
					<dim>1</dim>
					<dim>1</dim>
					<dim>37</dim>
					<dim>50</dim>
				</port>
				<port id="6" names="/Split_output_3" precision="FP32">
					<dim>1</dim>
					<dim>1</dim>
					<dim>37</dim>
					<dim>50</dim>
				</port>
			</output>
		</layer>
		<layer id="87" name="101" type="Concat" version="opset1">
			<data axis="1"/>
			<rt_info>
				<attribute name="fused_names" value="101" version="0"/>
			</rt_info>
			<input>
				<port id="0" precision="FP32">
					<dim>1</dim>
					<dim>1</dim>
					<dim>37</dim>
					<dim>50</dim>
				</port>
				<port id="1" precision="FP32">
					<dim>1</dim>
					<dim>1</dim>
					<dim>37</dim>
					<dim>50</dim>
				</port>
				<port id="2" precision="FP32">
					<dim>1</dim>
					<dim>1</dim>
					<dim>37</dim>
					<dim>50</dim>
				</port>
				<port id="3" precision="FP32">
					<dim>1</dim>
					<dim>1</dim>
					<dim>37</dim>
					<dim>50</dim>
				</port>
				<port id="4" precision="FP32">
					<dim>1</dim>
					<dim>1</dim>
					<dim>37</dim>
					<dim>50</dim>
				</port>
				<port id="5" precision="FP32">
					<dim>1</dim>
					<dim>1</dim>
					<dim>37</dim>
					<dim>50</dim>
				</port>
				<port id="6" precision="FP32">
					<dim>1</dim>
					<dim>1</dim>
					<dim>37</dim>
					<dim>50</dim>
				</port>
				<port id="7" precision="FP32">
					<dim>1</dim>
					<dim>1</dim>
					<dim>37</dim>
					<dim>50</dim>
				</port>
				<port id="8" precision="FP32">
					<dim>1</dim>
					<dim>1</dim>
					<dim>37</dim>
					<dim>50</dim>
				</port>
			</input>
			<output>
				<port id="9" names="101" precision="FP32">
					<dim>1</dim>
					<dim>9</dim>
					<dim>37</dim>
					<dim>50</dim>
				</port>
			</output>
		</layer>
		<layer id="88" name="101/sink_port_0" type="Result" version="opset1">
			<rt_info>
				<attribute name="fused_names" value="101/sink_port_0" version="0"/>
			</rt_info>
			<input>
				<port id="0" precision="FP32">
					<dim>1</dim>
					<dim>9</dim>
					<dim>37</dim>
					<dim>50</dim>
				</port>
			</input>
		</layer>
	</layers>
	<edges>
		<edge from-layer="0" from-port="0" to-layer="3" to-port="0"/>
		<edge from-layer="1" from-port="0" to-layer="48" to-port="0"/>
		<edge from-layer="2" from-port="0" to-layer="3" to-port="1"/>
		<edge from-layer="3" from-port="2" to-layer="5" to-port="0"/>
		<edge from-layer="4" from-port="0" to-layer="5" to-port="1"/>
		<edge from-layer="5" from-port="2" to-layer="7" to-port="0"/>
		<edge from-layer="6" from-port="0" to-layer="7" to-port="1"/>
		<edge from-layer="7" from-port="2" to-layer="8" to-port="0"/>
		<edge from-layer="8" from-port="1" to-layer="10" to-port="0"/>
		<edge from-layer="9" from-port="0" to-layer="10" to-port="1"/>
		<edge from-layer="10" from-port="2" to-layer="12" to-port="0"/>
		<edge from-layer="11" from-port="0" to-layer="12" to-port="1"/>
		<edge from-layer="12" from-port="2" to-layer="14" to-port="0"/>
		<edge from-layer="13" from-port="0" to-layer="14" to-port="1"/>
		<edge from-layer="14" from-port="2" to-layer="15" to-port="0"/>
		<edge from-layer="15" from-port="1" to-layer="17" to-port="0"/>
		<edge from-layer="16" from-port="0" to-layer="17" to-port="1"/>
		<edge from-layer="17" from-port="2" to-layer="19" to-port="0"/>
		<edge from-layer="18" from-port="0" to-layer="19" to-port="1"/>
		<edge from-layer="19" from-port="2" to-layer="21" to-port="0"/>
		<edge from-layer="20" from-port="0" to-layer="21" to-port="1"/>
		<edge from-layer="21" from-port="2" to-layer="22" to-port="0"/>
		<edge from-layer="22" from-port="1" to-layer="24" to-port="0"/>
		<edge from-layer="23" from-port="0" to-layer="24" to-port="1"/>
		<edge from-layer="24" from-port="2" to-layer="26" to-port="0"/>
		<edge from-layer="25" from-port="0" to-layer="26" to-port="1"/>
		<edge from-layer="26" from-port="2" to-layer="28" to-port="0"/>
		<edge from-layer="27" from-port="0" to-layer="28" to-port="1"/>
		<edge from-layer="28" from-port="2" to-layer="30" to-port="0"/>
		<edge from-layer="29" from-port="0" to-layer="30" to-port="1"/>
		<edge from-layer="30" from-port="2" to-layer="32" to-port="0"/>
		<edge from-layer="31" from-port="0" to-layer="32" to-port="1"/>
		<edge from-layer="32" from-port="2" to-layer="34" to-port="0"/>
		<edge from-layer="33" from-port="0" to-layer="34" to-port="1"/>
		<edge from-layer="34" from-port="2" to-layer="36" to-port="0"/>
		<edge from-layer="35" from-port="0" to-layer="36" to-port="1"/>
		<edge from-layer="36" from-port="2" to-layer="38" to-port="0"/>
		<edge from-layer="37" from-port="0" to-layer="38" to-port="1"/>
		<edge from-layer="38" from-port="2" to-layer="40" to-port="0"/>
		<edge from-layer="39" from-port="0" to-layer="40" to-port="1"/>
		<edge from-layer="40" from-port="2" to-layer="42" to-port="0"/>
		<edge from-layer="41" from-port="0" to-layer="42" to-port="1"/>
		<edge from-layer="42" from-port="2" to-layer="71" to-port="0"/>
		<edge from-layer="42" from-port="2" to-layer="77" to-port="0"/>
		<edge from-layer="42" from-port="2" to-layer="55" to-port="0"/>
		<edge from-layer="42" from-port="2" to-layer="82" to-port="0"/>
		<edge from-layer="42" from-port="2" to-layer="64" to-port="0"/>
		<edge from-layer="42" from-port="2" to-layer="46" to-port="0"/>
		<edge from-layer="43" from-port="0" to-layer="46" to-port="1"/>
		<edge from-layer="44" from-port="0" to-layer="46" to-port="2"/>
		<edge from-layer="45" from-port="0" to-layer="46" to-port="3"/>
		<edge from-layer="46" from-port="4" to-layer="47" to-port="0"/>
		<edge from-layer="47" from-port="1" to-layer="48" to-port="1"/>
		<edge from-layer="48" from-port="2" to-layer="50" to-port="0"/>
		<edge from-layer="49" from-port="0" to-layer="50" to-port="1"/>
		<edge from-layer="50" from-port="2" to-layer="87" to-port="0"/>
		<edge from-layer="51" from-port="0" to-layer="57" to-port="0"/>
		<edge from-layer="52" from-port="0" to-layer="55" to-port="1"/>
		<edge from-layer="53" from-port="0" to-layer="55" to-port="2"/>
		<edge from-layer="54" from-port="0" to-layer="55" to-port="3"/>
		<edge from-layer="55" from-port="4" to-layer="56" to-port="0"/>
		<edge from-layer="56" from-port="1" to-layer="57" to-port="1"/>
		<edge from-layer="57" from-port="2" to-layer="59" to-port="0"/>
		<edge from-layer="58" from-port="0" to-layer="59" to-port="1"/>
		<edge from-layer="59" from-port="2" to-layer="87" to-port="1"/>
		<edge from-layer="60" from-port="0" to-layer="66" to-port="0"/>
		<edge from-layer="61" from-port="0" to-layer="64" to-port="1"/>
		<edge from-layer="62" from-port="0" to-layer="64" to-port="2"/>
		<edge from-layer="63" from-port="0" to-layer="64" to-port="3"/>
		<edge from-layer="64" from-port="4" to-layer="65" to-port="0"/>
		<edge from-layer="65" from-port="1" to-layer="66" to-port="1"/>
		<edge from-layer="66" from-port="2" to-layer="87" to-port="2"/>
		<edge from-layer="67" from-port="0" to-layer="73" to-port="0"/>
		<edge from-layer="68" from-port="0" to-layer="71" to-port="1"/>
		<edge from-layer="69" from-port="0" to-layer="71" to-port="2"/>
		<edge from-layer="70" from-port="0" to-layer="71" to-port="3"/>
		<edge from-layer="71" from-port="4" to-layer="72" to-port="0"/>
		<edge from-layer="72" from-port="1" to-layer="73" to-port="1"/>
		<edge from-layer="73" from-port="2" to-layer="87" to-port="3"/>
		<edge from-layer="74" from-port="0" to-layer="77" to-port="1"/>
		<edge from-layer="75" from-port="0" to-layer="77" to-port="2"/>
		<edge from-layer="76" from-port="0" to-layer="77" to-port="3"/>
		<edge from-layer="77" from-port="4" to-layer="78" to-port="0"/>
		<edge from-layer="78" from-port="1" to-layer="87" to-port="4"/>
		<edge from-layer="79" from-port="0" to-layer="82" to-port="1"/>
		<edge from-layer="80" from-port="0" to-layer="82" to-port="2"/>
		<edge from-layer="81" from-port="0" to-layer="82" to-port="3"/>
		<edge from-layer="82" from-port="4" to-layer="83" to-port="0"/>
		<edge from-layer="83" from-port="1" to-layer="86" to-port="0"/>
		<edge from-layer="84" from-port="0" to-layer="86" to-port="1"/>
		<edge from-layer="85" from-port="0" to-layer="86" to-port="2"/>
		<edge from-layer="86" from-port="3" to-layer="87" to-port="5"/>
		<edge from-layer="86" from-port="4" to-layer="87" to-port="6"/>
		<edge from-layer="86" from-port="5" to-layer="87" to-port="7"/>
		<edge from-layer="86" from-port="6" to-layer="87" to-port="8"/>
		<edge from-layer="87" from-port="9" to-layer="88" to-port="0"/>
	</edges>
	<meta_data>
		<MO_version value="2022.1.0-7019-cdb9bec7210-releases/2022/1"/>
		<Runtime_version value="2022.1.0-7019-cdb9bec7210-releases/2022/1"/>
		<legacy_path value="False"/>
		<cli_parameters>
			<caffe_parser_path value="DIR"/>
			<compress_fp16 value="False"/>
			<data_type value="float"/>
			<disable_nhwc_to_nchw value="False"/>
			<disable_omitting_optional value="False"/>
			<disable_resnet_optimization value="False"/>
			<disable_weights_compression value="False"/>
			<enable_concat_optimization value="False"/>
			<enable_flattening_nested_params value="False"/>
			<enable_ssd_gluoncv value="False"/>
			<extensions value="DIR"/>
			<framework value="onnx"/>
			<freeze_placeholder_with_value value="{}"/>
			<input_model value="DIR/best.onnx"/>
			<input_model_is_text value="False"/>
			<k value="DIR/CustomLayersMapping.xml"/>
			<layout value="()"/>
			<layout_values value="{}"/>
			<legacy_mxnet_model value="False"/>
			<log_level value="ERROR"/>
			<mean_scale_values value="{}"/>
			<mean_values value="()"/>
			<model_name value="best"/>
			<output_dir value="DIR"/>
			<placeholder_data_types value="{}"/>
			<progress value="False"/>
			<remove_memory value="False"/>
			<remove_output_softmax value="False"/>
			<reverse_input_channels value="False"/>
			<save_params_from_nd value="False"/>
			<scale_values value="()"/>
			<silent value="False"/>
			<source_layout value="()"/>
			<static_shape value="False"/>
			<stream_output value="False"/>
			<target_layout value="()"/>
			<transform value=""/>
			<use_legacy_frontend value="False"/>
			<use_new_frontend value="False"/>
			<unset unset_cli_parameters="batch, counts, disable_fusing, finegrain_fusing, input, input_checkpoint, input_meta_graph, input_proto, input_shape, input_symbol, mean_file, mean_file_offsets, nd_prefix_name, output, placeholder_shapes, pretrained_model_name, saved_model_dir, saved_model_tags, scale, tensorboard_logdir, tensorflow_custom_layer_libraries, tensorflow_custom_operations_config_update, tensorflow_object_detection_api_pipeline_config, tensorflow_use_custom_operations_config, transformations_config"/>
		</cli_parameters>
	</meta_data>
</net>
