<?xml version="1.0" ?>
<net name="torch_jit" version="11">
	<layers>
		<layer id="0" name="onnx::Cast_0" type="Parameter" version="opset1">
			<data element_type="f32" shape="1,1,772,1032"/>
			<rt_info>
				<attribute name="fused_names" value="/Cast, onnx::Cast_0" version="0"/>
				<attribute name="old_api_map_element_type" value="f16" version="0"/>
			</rt_info>
			<output>
				<port id="0" names="/Cast_output_0,onnx::Cast_0" precision="FP32">
					<dim>1</dim>
					<dim>1</dim>
					<dim>772</dim>
					<dim>1032</dim>
				</port>
			</output>
		</layer>
		<layer id="1" name="Constant_1567_compressed" type="Const" version="opset1">
			<data element_type="f16" offset="0" shape="1, 1, 1, 1" size="2"/>
			<output>
				<port id="0" precision="FP16">
					<dim>1</dim>
					<dim>1</dim>
					<dim>1</dim>
					<dim>1</dim>
				</port>
			</output>
		</layer>
		<layer id="2" name="Constant_1567" type="Convert" version="opset1">
			<data destination_type="f32"/>
			<rt_info>
				<attribute name="decompression" version="0"/>
			</rt_info>
			<input>
				<port id="0" precision="FP16">
					<dim>1</dim>
					<dim>1</dim>
					<dim>1</dim>
					<dim>1</dim>
				</port>
			</input>
			<output>
				<port id="1" precision="FP32">
					<dim>1</dim>
					<dim>1</dim>
					<dim>1</dim>
					<dim>1</dim>
				</port>
			</output>
		</layer>
		<layer id="3" name="onnx::Conv_103_compressed" type="Const" version="opset1">
			<data element_type="f16" offset="2" shape="16, 1, 3, 3" size="288"/>
			<output>
				<port id="0" precision="FP16">
					<dim>16</dim>
					<dim>1</dim>
					<dim>3</dim>
					<dim>3</dim>
				</port>
			</output>
		</layer>
		<layer id="4" name="onnx::Conv_103" type="Convert" version="opset1">
			<data destination_type="f32"/>
			<rt_info>
				<attribute name="decompression" version="0"/>
				<attribute name="fused_names" value="onnx::Conv_103" version="0"/>
			</rt_info>
			<input>
				<port id="0" precision="FP16">
					<dim>16</dim>
					<dim>1</dim>
					<dim>3</dim>
					<dim>3</dim>
				</port>
			</input>
			<output>
				<port id="1" names="onnx::Conv_103" precision="FP32">
					<dim>16</dim>
					<dim>1</dim>
					<dim>3</dim>
					<dim>3</dim>
				</port>
			</output>
		</layer>
		<layer id="5" name="/model/model.0/model.0.0/Conv/WithoutBiases" type="Convolution" version="opset1">
			<data auto_pad="explicit" dilations="1, 1" pads_begin="1, 1" pads_end="1, 1" strides="1, 1"/>
			<rt_info>
				<attribute name="fused_names" value="/model/model.0/model.0.0/Conv/WithoutBiases" version="0"/>
			</rt_info>
			<input>
				<port id="0" precision="FP32">
					<dim>1</dim>
					<dim>1</dim>
					<dim>772</dim>
					<dim>1032</dim>
				</port>
				<port id="1" precision="FP32">
					<dim>16</dim>
					<dim>1</dim>
					<dim>3</dim>
					<dim>3</dim>
				</port>
			</input>
			<output>
				<port id="2" precision="FP32">
					<dim>1</dim>
					<dim>16</dim>
					<dim>772</dim>
					<dim>1032</dim>
				</port>
			</output>
		</layer>
		<layer id="6" name="Reshape_37_compressed" type="Const" version="opset1">
			<data element_type="f16" offset="290" shape="1, 16, 1, 1" size="32"/>
			<output>
				<port id="0" precision="FP16">
					<dim>1</dim>
					<dim>16</dim>
					<dim>1</dim>
					<dim>1</dim>
				</port>
			</output>
		</layer>
		<layer id="7" name="Reshape_37" type="Convert" version="opset1">
			<data destination_type="f32"/>
			<rt_info>
				<attribute name="decompression" version="0"/>
			</rt_info>
			<input>
				<port id="0" precision="FP16">
					<dim>1</dim>
					<dim>16</dim>
					<dim>1</dim>
					<dim>1</dim>
				</port>
			</input>
			<output>
				<port id="1" precision="FP32">
					<dim>1</dim>
					<dim>16</dim>
					<dim>1</dim>
					<dim>1</dim>
				</port>
			</output>
		</layer>
		<layer id="8" name="/model/model.0/model.0.0/Conv" type="Add" version="opset1">
			<data auto_broadcast="numpy"/>
			<rt_info>
				<attribute name="fused_names" value="/model/model.0/model.0.0/Conv, Concat_36, Reshape_37" version="0"/>
			</rt_info>
			<input>
				<port id="0" precision="FP32">
					<dim>1</dim>
					<dim>16</dim>
					<dim>772</dim>
					<dim>1032</dim>
				</port>
				<port id="1" precision="FP32">
					<dim>1</dim>
					<dim>16</dim>
					<dim>1</dim>
					<dim>1</dim>
				</port>
			</input>
			<output>
				<port id="2" names="/model/model.0/model.0.0/Conv_output_0" precision="FP32">
					<dim>1</dim>
					<dim>16</dim>
					<dim>772</dim>
					<dim>1032</dim>
				</port>
			</output>
		</layer>
		<layer id="9" name="Constant_65_compressed" type="Const" version="opset1">
			<data element_type="f16" offset="322" shape="1" size="2"/>
			<output>
				<port id="0" precision="FP16">
					<dim>1</dim>
				</port>
			</output>
		</layer>
		<layer id="10" name="Constant_65" type="Convert" version="opset1">
			<data destination_type="f32"/>
			<rt_info>
				<attribute name="decompression" version="0"/>
				<attribute name="fused_names" value="Constant_65" version="0"/>
			</rt_info>
			<input>
				<port id="0" precision="FP16">
					<dim>1</dim>
				</port>
			</input>
			<output>
				<port id="1" precision="FP32">
					<dim>1</dim>
				</port>
			</output>
		</layer>
		<layer id="11" name="/model/model.0/model.0.2/LeakyRelu" type="PReLU" version="opset1">
			<rt_info>
				<attribute name="fused_names" value="/model/model.0/model.0.2/LeakyRelu" version="0"/>
			</rt_info>
			<input>
				<port id="0" precision="FP32">
					<dim>1</dim>
					<dim>16</dim>
					<dim>772</dim>
					<dim>1032</dim>
				</port>
				<port id="1" precision="FP32">
					<dim>1</dim>
				</port>
			</input>
			<output>
				<port id="2" names="/model/model.0/model.0.2/LeakyRelu_output_0" precision="FP32">
					<dim>1</dim>
					<dim>16</dim>
					<dim>772</dim>
					<dim>1032</dim>
				</port>
			</output>
		</layer>
		<layer id="12" name="/model/model.0/model.0.3/MaxPool" type="MaxPool" version="opset8">
			<data auto_pad="explicit" axis="0" dilations="1, 1" index_element_type="i64" kernel="2, 2" pads_begin="0, 0" pads_end="0, 0" rounding_type="floor" strides="2, 2"/>
			<rt_info>
				<attribute name="fused_names" value="/model/model.0/model.0.3/MaxPool" version="0"/>
			</rt_info>
			<input>
				<port id="0" precision="FP32">
					<dim>1</dim>
					<dim>16</dim>
					<dim>772</dim>
					<dim>1032</dim>
				</port>
			</input>
			<output>
				<port id="1" names="/model/model.0/model.0.3/MaxPool_output_0" precision="FP32">
					<dim>1</dim>
					<dim>16</dim>
					<dim>386</dim>
					<dim>516</dim>
				</port>
				<port id="2" precision="I64">
					<dim>1</dim>
					<dim>16</dim>
					<dim>386</dim>
					<dim>516</dim>
				</port>
			</output>
		</layer>
		<layer id="13" name="model.1.0.weight_compressed" type="Const" version="opset1">
			<data element_type="f16" offset="324" shape="32, 16, 3, 3" size="9216"/>
			<output>
				<port id="0" precision="FP16">
					<dim>32</dim>
					<dim>16</dim>
					<dim>3</dim>
					<dim>3</dim>
				</port>
			</output>
		</layer>
		<layer id="14" name="model.1.0.weight" type="Convert" version="opset1">
			<data destination_type="f32"/>
			<rt_info>
				<attribute name="decompression" version="0"/>
				<attribute name="fused_names" value="model.1.0.weight" version="0"/>
			</rt_info>
			<input>
				<port id="0" precision="FP16">
					<dim>32</dim>
					<dim>16</dim>
					<dim>3</dim>
					<dim>3</dim>
				</port>
			</input>
			<output>
				<port id="1" names="model.1.0.weight" precision="FP32">
					<dim>32</dim>
					<dim>16</dim>
					<dim>3</dim>
					<dim>3</dim>
				</port>
			</output>
		</layer>
		<layer id="15" name="/model/model.1/model.1.0/Conv/WithoutBiases" type="Convolution" version="opset1">
			<data auto_pad="explicit" dilations="1, 1" pads_begin="1, 1" pads_end="1, 1" strides="1, 1"/>
			<rt_info>
				<attribute name="fused_names" value="/model/model.1/model.1.0/Conv/WithoutBiases" version="0"/>
			</rt_info>
			<input>
				<port id="0" precision="FP32">
					<dim>1</dim>
					<dim>16</dim>
					<dim>386</dim>
					<dim>516</dim>
				</port>
				<port id="1" precision="FP32">
					<dim>32</dim>
					<dim>16</dim>
					<dim>3</dim>
					<dim>3</dim>
				</port>
			</input>
			<output>
				<port id="2" precision="FP32">
					<dim>1</dim>
					<dim>32</dim>
					<dim>386</dim>
					<dim>516</dim>
				</port>
			</output>
		</layer>
		<layer id="16" name="Reshape_88_compressed" type="Const" version="opset1">
			<data element_type="f16" offset="9540" shape="1, 32, 1, 1" size="64"/>
			<output>
				<port id="0" precision="FP16">
					<dim>1</dim>
					<dim>32</dim>
					<dim>1</dim>
					<dim>1</dim>
				</port>
			</output>
		</layer>
		<layer id="17" name="Reshape_88" type="Convert" version="opset1">
			<data destination_type="f32"/>
			<rt_info>
				<attribute name="decompression" version="0"/>
			</rt_info>
			<input>
				<port id="0" precision="FP16">
					<dim>1</dim>
					<dim>32</dim>
					<dim>1</dim>
					<dim>1</dim>
				</port>
			</input>
			<output>
				<port id="1" precision="FP32">
					<dim>1</dim>
					<dim>32</dim>
					<dim>1</dim>
					<dim>1</dim>
				</port>
			</output>
		</layer>
		<layer id="18" name="/model/model.1/model.1.0/Conv" type="Add" version="opset1">
			<data auto_broadcast="numpy"/>
			<rt_info>
				<attribute name="fused_names" value="/model/model.1/model.1.0/Conv, Concat_87, Reshape_88" version="0"/>
			</rt_info>
			<input>
				<port id="0" precision="FP32">
					<dim>1</dim>
					<dim>32</dim>
					<dim>386</dim>
					<dim>516</dim>
				</port>
				<port id="1" precision="FP32">
					<dim>1</dim>
					<dim>32</dim>
					<dim>1</dim>
					<dim>1</dim>
				</port>
			</input>
			<output>
				<port id="2" names="/model/model.1/model.1.0/Conv_output_0" precision="FP32">
					<dim>1</dim>
					<dim>32</dim>
					<dim>386</dim>
					<dim>516</dim>
				</port>
			</output>
		</layer>
		<layer id="19" name="Constant_116_compressed" type="Const" version="opset1">
			<data element_type="f16" offset="322" shape="1" size="2"/>
			<output>
				<port id="0" precision="FP16">
					<dim>1</dim>
				</port>
			</output>
		</layer>
		<layer id="20" name="Constant_116" type="Convert" version="opset1">
			<data destination_type="f32"/>
			<rt_info>
				<attribute name="decompression" version="0"/>
				<attribute name="fused_names" value="Constant_116" version="0"/>
			</rt_info>
			<input>
				<port id="0" precision="FP16">
					<dim>1</dim>
				</port>
			</input>
			<output>
				<port id="1" precision="FP32">
					<dim>1</dim>
				</port>
			</output>
		</layer>
		<layer id="21" name="/model/model.1/model.1.1/LeakyRelu" type="PReLU" version="opset1">
			<rt_info>
				<attribute name="fused_names" value="/model/model.1/model.1.1/LeakyRelu" version="0"/>
			</rt_info>
			<input>
				<port id="0" precision="FP32">
					<dim>1</dim>
					<dim>32</dim>
					<dim>386</dim>
					<dim>516</dim>
				</port>
				<port id="1" precision="FP32">
					<dim>1</dim>
				</port>
			</input>
			<output>
				<port id="2" names="/model/model.1/model.1.1/LeakyRelu_output_0" precision="FP32">
					<dim>1</dim>
					<dim>32</dim>
					<dim>386</dim>
					<dim>516</dim>
				</port>
			</output>
		</layer>
		<layer id="22" name="/model/model.1/model.1.2/MaxPool" type="MaxPool" version="opset8">
			<data auto_pad="explicit" axis="0" dilations="1, 1" index_element_type="i64" kernel="2, 2" pads_begin="0, 0" pads_end="0, 0" rounding_type="floor" strides="2, 2"/>
			<rt_info>
				<attribute name="fused_names" value="/model/model.1/model.1.2/MaxPool" version="0"/>
			</rt_info>
			<input>
				<port id="0" precision="FP32">
					<dim>1</dim>
					<dim>32</dim>
					<dim>386</dim>
					<dim>516</dim>
				</port>
			</input>
			<output>
				<port id="1" names="/model/model.1/model.1.2/MaxPool_output_0" precision="FP32">
					<dim>1</dim>
					<dim>32</dim>
					<dim>193</dim>
					<dim>258</dim>
				</port>
				<port id="2" precision="I64">
					<dim>1</dim>
					<dim>32</dim>
					<dim>193</dim>
					<dim>258</dim>
				</port>
			</output>
		</layer>
		<layer id="23" name="model.2.0.weight_compressed" type="Const" version="opset1">
			<data element_type="f16" offset="9604" shape="64, 32, 3, 3" size="36864"/>
			<output>
				<port id="0" precision="FP16">
					<dim>64</dim>
					<dim>32</dim>
					<dim>3</dim>
					<dim>3</dim>
				</port>
			</output>
		</layer>
		<layer id="24" name="model.2.0.weight" type="Convert" version="opset1">
			<data destination_type="f32"/>
			<rt_info>
				<attribute name="decompression" version="0"/>
				<attribute name="fused_names" value="model.2.0.weight" version="0"/>
			</rt_info>
			<input>
				<port id="0" precision="FP16">
					<dim>64</dim>
					<dim>32</dim>
					<dim>3</dim>
					<dim>3</dim>
				</port>
			</input>
			<output>
				<port id="1" names="model.2.0.weight" precision="FP32">
					<dim>64</dim>
					<dim>32</dim>
					<dim>3</dim>
					<dim>3</dim>
				</port>
			</output>
		</layer>
		<layer id="25" name="/model/model.2/model.2.0/Conv/WithoutBiases" type="Convolution" version="opset1">
			<data auto_pad="explicit" dilations="1, 1" pads_begin="1, 1" pads_end="1, 1" strides="1, 1"/>
			<rt_info>
				<attribute name="fused_names" value="/model/model.2/model.2.0/Conv/WithoutBiases" version="0"/>
			</rt_info>
			<input>
				<port id="0" precision="FP32">
					<dim>1</dim>
					<dim>32</dim>
					<dim>193</dim>
					<dim>258</dim>
				</port>
				<port id="1" precision="FP32">
					<dim>64</dim>
					<dim>32</dim>
					<dim>3</dim>
					<dim>3</dim>
				</port>
			</input>
			<output>
				<port id="2" precision="FP32">
					<dim>1</dim>
					<dim>64</dim>
					<dim>193</dim>
					<dim>258</dim>
				</port>
			</output>
		</layer>
		<layer id="26" name="Reshape_139_compressed" type="Const" version="opset1">
			<data element_type="f16" offset="46468" shape="1, 64, 1, 1" size="128"/>
			<output>
				<port id="0" precision="FP16">
					<dim>1</dim>
					<dim>64</dim>
					<dim>1</dim>
					<dim>1</dim>
				</port>
			</output>
		</layer>
		<layer id="27" name="Reshape_139" type="Convert" version="opset1">
			<data destination_type="f32"/>
			<rt_info>
				<attribute name="decompression" version="0"/>
			</rt_info>
			<input>
				<port id="0" precision="FP16">
					<dim>1</dim>
					<dim>64</dim>
					<dim>1</dim>
					<dim>1</dim>
				</port>
			</input>
			<output>
				<port id="1" precision="FP32">
					<dim>1</dim>
					<dim>64</dim>
					<dim>1</dim>
					<dim>1</dim>
				</port>
			</output>
		</layer>
		<layer id="28" name="/model/model.2/model.2.0/Conv" type="Add" version="opset1">
			<data auto_broadcast="numpy"/>
			<rt_info>
				<attribute name="fused_names" value="/model/model.2/model.2.0/Conv, Concat_138, Reshape_139" version="0"/>
			</rt_info>
			<input>
				<port id="0" precision="FP32">
					<dim>1</dim>
					<dim>64</dim>
					<dim>193</dim>
					<dim>258</dim>
				</port>
				<port id="1" precision="FP32">
					<dim>1</dim>
					<dim>64</dim>
					<dim>1</dim>
					<dim>1</dim>
				</port>
			</input>
			<output>
				<port id="2" names="/model/model.2/model.2.0/Conv_output_0" precision="FP32">
					<dim>1</dim>
					<dim>64</dim>
					<dim>193</dim>
					<dim>258</dim>
				</port>
			</output>
		</layer>
		<layer id="29" name="Constant_167_compressed" type="Const" version="opset1">
			<data element_type="f16" offset="322" shape="1" size="2"/>
			<output>
				<port id="0" precision="FP16">
					<dim>1</dim>
				</port>
			</output>
		</layer>
		<layer id="30" name="Constant_167" type="Convert" version="opset1">
			<data destination_type="f32"/>
			<rt_info>
				<attribute name="decompression" version="0"/>
				<attribute name="fused_names" value="Constant_167" version="0"/>
			</rt_info>
			<input>
				<port id="0" precision="FP16">
					<dim>1</dim>
				</port>
			</input>
			<output>
				<port id="1" precision="FP32">
					<dim>1</dim>
				</port>
			</output>
		</layer>
		<layer id="31" name="/model/model.2/model.2.1/LeakyRelu" type="PReLU" version="opset1">
			<rt_info>
				<attribute name="fused_names" value="/model/model.2/model.2.1/LeakyRelu" version="0"/>
			</rt_info>
			<input>
				<port id="0" precision="FP32">
					<dim>1</dim>
					<dim>64</dim>
					<dim>193</dim>
					<dim>258</dim>
				</port>
				<port id="1" precision="FP32">
					<dim>1</dim>
				</port>
			</input>
			<output>
				<port id="2" names="/model/model.2/model.2.1/LeakyRelu_output_0" precision="FP32">
					<dim>1</dim>
					<dim>64</dim>
					<dim>193</dim>
					<dim>258</dim>
				</port>
			</output>
		</layer>
		<layer id="32" name="/model/model.2/model.2.2/MaxPool" type="MaxPool" version="opset8">
			<data auto_pad="explicit" axis="0" dilations="1, 1" index_element_type="i64" kernel="2, 2" pads_begin="0, 0" pads_end="0, 0" rounding_type="floor" strides="2, 2"/>
			<rt_info>
				<attribute name="fused_names" value="/model/model.2/model.2.2/MaxPool" version="0"/>
			</rt_info>
			<input>
				<port id="0" precision="FP32">
					<dim>1</dim>
					<dim>64</dim>
					<dim>193</dim>
					<dim>258</dim>
				</port>
			</input>
			<output>
				<port id="1" names="/model/model.2/model.2.2/MaxPool_output_0" precision="FP32">
					<dim>1</dim>
					<dim>64</dim>
					<dim>96</dim>
					<dim>129</dim>
				</port>
				<port id="2" precision="I64">
					<dim>1</dim>
					<dim>64</dim>
					<dim>96</dim>
					<dim>129</dim>
				</port>
			</output>
		</layer>
		<layer id="33" name="model.3.0.weight_compressed" type="Const" version="opset1">
			<data element_type="f16" offset="46596" shape="128, 64, 3, 3" size="147456"/>
			<output>
				<port id="0" precision="FP16">
					<dim>128</dim>
					<dim>64</dim>
					<dim>3</dim>
					<dim>3</dim>
				</port>
			</output>
		</layer>
		<layer id="34" name="model.3.0.weight" type="Convert" version="opset1">
			<data destination_type="f32"/>
			<rt_info>
				<attribute name="decompression" version="0"/>
				<attribute name="fused_names" value="model.3.0.weight" version="0"/>
			</rt_info>
			<input>
				<port id="0" precision="FP16">
					<dim>128</dim>
					<dim>64</dim>
					<dim>3</dim>
					<dim>3</dim>
				</port>
			</input>
			<output>
				<port id="1" names="model.3.0.weight" precision="FP32">
					<dim>128</dim>
					<dim>64</dim>
					<dim>3</dim>
					<dim>3</dim>
				</port>
			</output>
		</layer>
		<layer id="35" name="/model/model.3/model.3.0/Conv" type="Convolution" version="opset1">
			<data auto_pad="explicit" dilations="1, 1" pads_begin="1, 1" pads_end="1, 1" strides="1, 1"/>
			<rt_info>
				<attribute name="fused_names" value="/model/model.3/model.3.0/Conv" version="0"/>
			</rt_info>
			<input>
				<port id="0" precision="FP32">
					<dim>1</dim>
					<dim>64</dim>
					<dim>96</dim>
					<dim>129</dim>
				</port>
				<port id="1" precision="FP32">
					<dim>128</dim>
					<dim>64</dim>
					<dim>3</dim>
					<dim>3</dim>
				</port>
			</input>
			<output>
				<port id="2" names="/model/model.3/model.3.0/Conv_output_0" precision="FP32">
					<dim>1</dim>
					<dim>128</dim>
					<dim>96</dim>
					<dim>129</dim>
				</port>
			</output>
		</layer>
		<layer id="36" name="Constant_172_compressed" type="Const" version="opset1">
			<data element_type="f16" offset="322" shape="1" size="2"/>
			<output>
				<port id="0" precision="FP16">
					<dim>1</dim>
				</port>
			</output>
		</layer>
		<layer id="37" name="Constant_172" type="Convert" version="opset1">
			<data destination_type="f32"/>
			<rt_info>
				<attribute name="decompression" version="0"/>
				<attribute name="fused_names" value="Constant_172" version="0"/>
			</rt_info>
			<input>
				<port id="0" precision="FP16">
					<dim>1</dim>
				</port>
			</input>
			<output>
				<port id="1" precision="FP32">
					<dim>1</dim>
				</port>
			</output>
		</layer>
		<layer id="38" name="/model/model.3/model.3.1/LeakyRelu" type="PReLU" version="opset1">
			<rt_info>
				<attribute name="fused_names" value="/model/model.3/model.3.1/LeakyRelu" version="0"/>
			</rt_info>
			<input>
				<port id="0" precision="FP32">
					<dim>1</dim>
					<dim>128</dim>
					<dim>96</dim>
					<dim>129</dim>
				</port>
				<port id="1" precision="FP32">
					<dim>1</dim>
				</port>
			</input>
			<output>
				<port id="2" names="/model/model.3/model.3.1/LeakyRelu_output_0" precision="FP32">
					<dim>1</dim>
					<dim>128</dim>
					<dim>96</dim>
					<dim>129</dim>
				</port>
			</output>
		</layer>
		<layer id="39" name="onnx::Conv_106_compressed" type="Const" version="opset1">
			<data element_type="f16" offset="194052" shape="128, 128, 3, 3" size="294912"/>
			<output>
				<port id="0" precision="FP16">
					<dim>128</dim>
					<dim>128</dim>
					<dim>3</dim>
					<dim>3</dim>
				</port>
			</output>
		</layer>
		<layer id="40" name="onnx::Conv_106" type="Convert" version="opset1">
			<data destination_type="f32"/>
			<rt_info>
				<attribute name="decompression" version="0"/>
				<attribute name="fused_names" value="onnx::Conv_106" version="0"/>
			</rt_info>
			<input>
				<port id="0" precision="FP16">
					<dim>128</dim>
					<dim>128</dim>
					<dim>3</dim>
					<dim>3</dim>
				</port>
			</input>
			<output>
				<port id="1" names="onnx::Conv_106" precision="FP32">
					<dim>128</dim>
					<dim>128</dim>
					<dim>3</dim>
					<dim>3</dim>
				</port>
			</output>
		</layer>
		<layer id="41" name="/model/model.4/model.4.0/Conv/WithoutBiases" type="Convolution" version="opset1">
			<data auto_pad="explicit" dilations="1, 1" pads_begin="1, 1" pads_end="1, 1" strides="1, 1"/>
			<rt_info>
				<attribute name="fused_names" value="/model/model.4/model.4.0/Conv/WithoutBiases" version="0"/>
			</rt_info>
			<input>
				<port id="0" precision="FP32">
					<dim>1</dim>
					<dim>128</dim>
					<dim>96</dim>
					<dim>129</dim>
				</port>
				<port id="1" precision="FP32">
					<dim>128</dim>
					<dim>128</dim>
					<dim>3</dim>
					<dim>3</dim>
				</port>
			</input>
			<output>
				<port id="2" precision="FP32">
					<dim>1</dim>
					<dim>128</dim>
					<dim>96</dim>
					<dim>129</dim>
				</port>
			</output>
		</layer>
		<layer id="42" name="Reshape_194_compressed" type="Const" version="opset1">
			<data element_type="f16" offset="488964" shape="1, 128, 1, 1" size="256"/>
			<output>
				<port id="0" precision="FP16">
					<dim>1</dim>
					<dim>128</dim>
					<dim>1</dim>
					<dim>1</dim>
				</port>
			</output>
		</layer>
		<layer id="43" name="Reshape_194" type="Convert" version="opset1">
			<data destination_type="f32"/>
			<rt_info>
				<attribute name="decompression" version="0"/>
			</rt_info>
			<input>
				<port id="0" precision="FP16">
					<dim>1</dim>
					<dim>128</dim>
					<dim>1</dim>
					<dim>1</dim>
				</port>
			</input>
			<output>
				<port id="1" precision="FP32">
					<dim>1</dim>
					<dim>128</dim>
					<dim>1</dim>
					<dim>1</dim>
				</port>
			</output>
		</layer>
		<layer id="44" name="/model/model.4/model.4.0/Conv" type="Add" version="opset1">
			<data auto_broadcast="numpy"/>
			<rt_info>
				<attribute name="fused_names" value="/model/model.4/model.4.0/Conv, Concat_193, Reshape_194" version="0"/>
			</rt_info>
			<input>
				<port id="0" precision="FP32">
					<dim>1</dim>
					<dim>128</dim>
					<dim>96</dim>
					<dim>129</dim>
				</port>
				<port id="1" precision="FP32">
					<dim>1</dim>
					<dim>128</dim>
					<dim>1</dim>
					<dim>1</dim>
				</port>
			</input>
			<output>
				<port id="2" names="/model/model.4/model.4.0/Conv_output_0" precision="FP32">
					<dim>1</dim>
					<dim>128</dim>
					<dim>96</dim>
					<dim>129</dim>
				</port>
			</output>
		</layer>
		<layer id="45" name="Constant_222_compressed" type="Const" version="opset1">
			<data element_type="f16" offset="322" shape="1" size="2"/>
			<output>
				<port id="0" precision="FP16">
					<dim>1</dim>
				</port>
			</output>
		</layer>
		<layer id="46" name="Constant_222" type="Convert" version="opset1">
			<data destination_type="f32"/>
			<rt_info>
				<attribute name="decompression" version="0"/>
				<attribute name="fused_names" value="Constant_222" version="0"/>
			</rt_info>
			<input>
				<port id="0" precision="FP16">
					<dim>1</dim>
				</port>
			</input>
			<output>
				<port id="1" precision="FP32">
					<dim>1</dim>
				</port>
			</output>
		</layer>
		<layer id="47" name="/model/model.4/model.4.2/LeakyRelu" type="PReLU" version="opset1">
			<rt_info>
				<attribute name="fused_names" value="/model/model.4/model.4.2/LeakyRelu" version="0"/>
			</rt_info>
			<input>
				<port id="0" precision="FP32">
					<dim>1</dim>
					<dim>128</dim>
					<dim>96</dim>
					<dim>129</dim>
				</port>
				<port id="1" precision="FP32">
					<dim>1</dim>
				</port>
			</input>
			<output>
				<port id="2" names="/model/model.4/model.4.2/LeakyRelu_output_0" precision="FP32">
					<dim>1</dim>
					<dim>128</dim>
					<dim>96</dim>
					<dim>129</dim>
				</port>
			</output>
		</layer>
		<layer id="48" name="model.5.0.weight_compressed" type="Const" version="opset1">
			<data element_type="f16" offset="489220" shape="128, 128, 3, 3" size="294912"/>
			<output>
				<port id="0" precision="FP16">
					<dim>128</dim>
					<dim>128</dim>
					<dim>3</dim>
					<dim>3</dim>
				</port>
			</output>
		</layer>
		<layer id="49" name="model.5.0.weight" type="Convert" version="opset1">
			<data destination_type="f32"/>
			<rt_info>
				<attribute name="decompression" version="0"/>
				<attribute name="fused_names" value="model.5.0.weight" version="0"/>
			</rt_info>
			<input>
				<port id="0" precision="FP16">
					<dim>128</dim>
					<dim>128</dim>
					<dim>3</dim>
					<dim>3</dim>
				</port>
			</input>
			<output>
				<port id="1" names="model.5.0.weight" precision="FP32">
					<dim>128</dim>
					<dim>128</dim>
					<dim>3</dim>
					<dim>3</dim>
				</port>
			</output>
		</layer>
		<layer id="50" name="/model/model.5/model.5.0/Conv/WithoutBiases" type="Convolution" version="opset1">
			<data auto_pad="explicit" dilations="1, 1" pads_begin="1, 1" pads_end="1, 1" strides="1, 1"/>
			<rt_info>
				<attribute name="fused_names" value="/model/model.5/model.5.0/Conv/WithoutBiases" version="0"/>
			</rt_info>
			<input>
				<port id="0" precision="FP32">
					<dim>1</dim>
					<dim>128</dim>
					<dim>96</dim>
					<dim>129</dim>
				</port>
				<port id="1" precision="FP32">
					<dim>128</dim>
					<dim>128</dim>
					<dim>3</dim>
					<dim>3</dim>
				</port>
			</input>
			<output>
				<port id="2" precision="FP32">
					<dim>1</dim>
					<dim>128</dim>
					<dim>96</dim>
					<dim>129</dim>
				</port>
			</output>
		</layer>
		<layer id="51" name="Reshape_244_compressed" type="Const" version="opset1">
			<data element_type="f16" offset="784132" shape="1, 128, 1, 1" size="256"/>
			<output>
				<port id="0" precision="FP16">
					<dim>1</dim>
					<dim>128</dim>
					<dim>1</dim>
					<dim>1</dim>
				</port>
			</output>
		</layer>
		<layer id="52" name="Reshape_244" type="Convert" version="opset1">
			<data destination_type="f32"/>
			<rt_info>
				<attribute name="decompression" version="0"/>
			</rt_info>
			<input>
				<port id="0" precision="FP16">
					<dim>1</dim>
					<dim>128</dim>
					<dim>1</dim>
					<dim>1</dim>
				</port>
			</input>
			<output>
				<port id="1" precision="FP32">
					<dim>1</dim>
					<dim>128</dim>
					<dim>1</dim>
					<dim>1</dim>
				</port>
			</output>
		</layer>
		<layer id="53" name="/model/model.5/model.5.0/Conv" type="Add" version="opset1">
			<data auto_broadcast="numpy"/>
			<rt_info>
				<attribute name="fused_names" value="/model/model.5/model.5.0/Conv, Concat_243, Reshape_244" version="0"/>
			</rt_info>
			<input>
				<port id="0" precision="FP32">
					<dim>1</dim>
					<dim>128</dim>
					<dim>96</dim>
					<dim>129</dim>
				</port>
				<port id="1" precision="FP32">
					<dim>1</dim>
					<dim>128</dim>
					<dim>1</dim>
					<dim>1</dim>
				</port>
			</input>
			<output>
				<port id="2" names="/model/model.5/model.5.0/Conv_output_0" precision="FP32">
					<dim>1</dim>
					<dim>128</dim>
					<dim>96</dim>
					<dim>129</dim>
				</port>
			</output>
		</layer>
		<layer id="54" name="Constant_272_compressed" type="Const" version="opset1">
			<data element_type="f16" offset="322" shape="1" size="2"/>
			<output>
				<port id="0" precision="FP16">
					<dim>1</dim>
				</port>
			</output>
		</layer>
		<layer id="55" name="Constant_272" type="Convert" version="opset1">
			<data destination_type="f32"/>
			<rt_info>
				<attribute name="decompression" version="0"/>
				<attribute name="fused_names" value="Constant_272" version="0"/>
			</rt_info>
			<input>
				<port id="0" precision="FP16">
					<dim>1</dim>
				</port>
			</input>
			<output>
				<port id="1" precision="FP32">
					<dim>1</dim>
				</port>
			</output>
		</layer>
		<layer id="56" name="/model/model.5/model.5.1/LeakyRelu" type="PReLU" version="opset1">
			<rt_info>
				<attribute name="fused_names" value="/model/model.5/model.5.1/LeakyRelu" version="0"/>
			</rt_info>
			<input>
				<port id="0" precision="FP32">
					<dim>1</dim>
					<dim>128</dim>
					<dim>96</dim>
					<dim>129</dim>
				</port>
				<port id="1" precision="FP32">
					<dim>1</dim>
				</port>
			</input>
			<output>
				<port id="2" names="/model/model.5/model.5.1/LeakyRelu_output_0" precision="FP32">
					<dim>1</dim>
					<dim>128</dim>
					<dim>96</dim>
					<dim>129</dim>
				</port>
			</output>
		</layer>
		<layer id="57" name="model.6.weight_compressed" type="Const" version="opset1">
			<data element_type="f16" offset="784388" shape="9, 128, 1, 1" size="2304"/>
			<output>
				<port id="0" precision="FP16">
					<dim>9</dim>
					<dim>128</dim>
					<dim>1</dim>
					<dim>1</dim>
				</port>
			</output>
		</layer>
		<layer id="58" name="model.6.weight" type="Convert" version="opset1">
			<data destination_type="f32"/>
			<rt_info>
				<attribute name="decompression" version="0"/>
				<attribute name="fused_names" value="model.6.weight" version="0"/>
			</rt_info>
			<input>
				<port id="0" precision="FP16">
					<dim>9</dim>
					<dim>128</dim>
					<dim>1</dim>
					<dim>1</dim>
				</port>
			</input>
			<output>
				<port id="1" names="model.6.weight" precision="FP32">
					<dim>9</dim>
					<dim>128</dim>
					<dim>1</dim>
					<dim>1</dim>
				</port>
			</output>
		</layer>
		<layer id="59" name="/model/model.6/Conv/WithoutBiases" type="Convolution" version="opset1">
			<data auto_pad="explicit" dilations="1, 1" pads_begin="0, 0" pads_end="0, 0" strides="1, 1"/>
			<rt_info>
				<attribute name="fused_names" value="/model/model.6/Conv/WithoutBiases" version="0"/>
			</rt_info>
			<input>
				<port id="0" precision="FP32">
					<dim>1</dim>
					<dim>128</dim>
					<dim>96</dim>
					<dim>129</dim>
				</port>
				<port id="1" precision="FP32">
					<dim>9</dim>
					<dim>128</dim>
					<dim>1</dim>
					<dim>1</dim>
				</port>
			</input>
			<output>
				<port id="2" precision="FP32">
					<dim>1</dim>
					<dim>9</dim>
					<dim>96</dim>
					<dim>129</dim>
				</port>
			</output>
		</layer>
		<layer id="60" name="Reshape_294_compressed" type="Const" version="opset1">
			<data element_type="f16" offset="786692" shape="1, 9, 1, 1" size="18"/>
			<output>
				<port id="0" precision="FP16">
					<dim>1</dim>
					<dim>9</dim>
					<dim>1</dim>
					<dim>1</dim>
				</port>
			</output>
		</layer>
		<layer id="61" name="Reshape_294" type="Convert" version="opset1">
			<data destination_type="f32"/>
			<rt_info>
				<attribute name="decompression" version="0"/>
			</rt_info>
			<input>
				<port id="0" precision="FP16">
					<dim>1</dim>
					<dim>9</dim>
					<dim>1</dim>
					<dim>1</dim>
				</port>
			</input>
			<output>
				<port id="1" precision="FP32">
					<dim>1</dim>
					<dim>9</dim>
					<dim>1</dim>
					<dim>1</dim>
				</port>
			</output>
		</layer>
		<layer id="62" name="/model/model.6/Conv" type="Add" version="opset1">
			<data auto_broadcast="numpy"/>
			<rt_info>
				<attribute name="fused_names" value="/model/model.6/Conv, Concat_293, Reshape_294" version="0"/>
			</rt_info>
			<input>
				<port id="0" precision="FP32">
					<dim>1</dim>
					<dim>9</dim>
					<dim>96</dim>
					<dim>129</dim>
				</port>
				<port id="1" precision="FP32">
					<dim>1</dim>
					<dim>9</dim>
					<dim>1</dim>
					<dim>1</dim>
				</port>
			</input>
			<output>
				<port id="2" names="/model/model.6/Conv_output_0" precision="FP32">
					<dim>1</dim>
					<dim>9</dim>
					<dim>96</dim>
					<dim>129</dim>
				</port>
			</output>
		</layer>
		<layer id="63" name="Constant_1459" type="Const" version="opset1">
			<data element_type="i64" offset="786710" shape="2" size="16"/>
			<rt_info>
				<attribute name="fused_names" value="/Slice_1" version="0"/>
			</rt_info>
			<output>
				<port id="0" precision="I64">
					<dim>2</dim>
				</port>
			</output>
		</layer>
		<layer id="64" name="Constant_1462" type="Const" version="opset1">
			<data element_type="i64" offset="786726" shape="2" size="16"/>
			<rt_info>
				<attribute name="fused_names" value="/Slice_1" version="0"/>
			</rt_info>
			<output>
				<port id="0" precision="I64">
					<dim>2</dim>
				</port>
			</output>
		</layer>
		<layer id="65" name="Constant_1465" type="Const" version="opset1">
			<data element_type="i64" offset="786742" shape="2" size="16"/>
			<rt_info>
				<attribute name="fused_names" value="/Slice_1" version="0"/>
			</rt_info>
			<output>
				<port id="0" precision="I64">
					<dim>2</dim>
				</port>
			</output>
		</layer>
		<layer id="66" name="/Slice_1" type="StridedSlice" version="opset1">
			<data begin_mask="1, 0" ellipsis_mask="" end_mask="1, 0" new_axis_mask="" shrink_axis_mask=""/>
			<rt_info>
				<attribute name="fused_names" value="/Slice_1" version="0"/>
			</rt_info>
			<input>
				<port id="0" precision="FP32">
					<dim>1</dim>
					<dim>9</dim>
					<dim>96</dim>
					<dim>129</dim>
				</port>
				<port id="1" precision="I64">
					<dim>2</dim>
				</port>
				<port id="2" precision="I64">
					<dim>2</dim>
				</port>
				<port id="3" precision="I64">
					<dim>2</dim>
				</port>
			</input>
			<output>
				<port id="4" names="/Slice_1_output_0" precision="FP32">
					<dim>1</dim>
					<dim>1</dim>
					<dim>96</dim>
					<dim>129</dim>
				</port>
			</output>
		</layer>
		<layer id="67" name="/Sigmoid" type="Sigmoid" version="opset1">
			<rt_info>
				<attribute name="fused_names" value="/Sigmoid" version="0"/>
			</rt_info>
			<input>
				<port id="0" precision="FP32">
					<dim>1</dim>
					<dim>1</dim>
					<dim>96</dim>
					<dim>129</dim>
				</port>
			</input>
			<output>
				<port id="1" names="/Sigmoid_output_0" precision="FP32">
					<dim>1</dim>
					<dim>1</dim>
					<dim>96</dim>
					<dim>129</dim>
				</port>
			</output>
		</layer>
		<layer id="68" name="/Mul" type="Multiply" version="opset1">
			<data auto_broadcast="numpy"/>
			<rt_info>
				<attribute name="fused_names" value="/Mul, /Reciprocal" version="0"/>
			</rt_info>
			<input>
				<port id="0" precision="FP32">
					<dim>1</dim>
					<dim>1</dim>
					<dim>1</dim>
					<dim>1</dim>
				</port>
				<port id="1" precision="FP32">
					<dim>1</dim>
					<dim>1</dim>
					<dim>96</dim>
					<dim>129</dim>
				</port>
			</input>
			<output>
				<port id="2" names="/Mul_output_0" precision="FP32">
					<dim>1</dim>
					<dim>1</dim>
					<dim>96</dim>
					<dim>129</dim>
				</port>
			</output>
		</layer>
		<layer id="69" name="Constant_1568_compressed" type="Const" version="opset1">
			<data element_type="f16" offset="786758" shape="1, 1, 96, 129" size="24768"/>
			<output>
				<port id="0" precision="FP16">
					<dim>1</dim>
					<dim>1</dim>
					<dim>96</dim>
					<dim>129</dim>
				</port>
			</output>
		</layer>
		<layer id="70" name="Constant_1568" type="Convert" version="opset1">
			<data destination_type="f32"/>
			<rt_info>
				<attribute name="decompression" version="0"/>
			</rt_info>
			<input>
				<port id="0" precision="FP16">
					<dim>1</dim>
					<dim>1</dim>
					<dim>96</dim>
					<dim>129</dim>
				</port>
			</input>
			<output>
				<port id="1" precision="FP32">
					<dim>1</dim>
					<dim>1</dim>
					<dim>96</dim>
					<dim>129</dim>
				</port>
			</output>
		</layer>
		<layer id="71" name="/Add" type="Add" version="opset1">
			<data auto_broadcast="numpy"/>
			<rt_info>
				<attribute name="fused_names" value="/Add" version="0"/>
			</rt_info>
			<input>
				<port id="0" precision="FP32">
					<dim>1</dim>
					<dim>1</dim>
					<dim>96</dim>
					<dim>129</dim>
				</port>
				<port id="1" precision="FP32">
					<dim>1</dim>
					<dim>1</dim>
					<dim>96</dim>
					<dim>129</dim>
				</port>
			</input>
			<output>
				<port id="2" names="/Add_output_0" precision="FP32">
					<dim>1</dim>
					<dim>1</dim>
					<dim>96</dim>
					<dim>129</dim>
				</port>
			</output>
		</layer>
		<layer id="72" name="Constant_1569_compressed" type="Const" version="opset1">
			<data element_type="f16" offset="811526" shape="1, 1, 1, 1" size="2"/>
			<output>
				<port id="0" precision="FP16">
					<dim>1</dim>
					<dim>1</dim>
					<dim>1</dim>
					<dim>1</dim>
				</port>
			</output>
		</layer>
		<layer id="73" name="Constant_1569" type="Convert" version="opset1">
			<data destination_type="f32"/>
			<rt_info>
				<attribute name="decompression" version="0"/>
			</rt_info>
			<input>
				<port id="0" precision="FP16">
					<dim>1</dim>
					<dim>1</dim>
					<dim>1</dim>
					<dim>1</dim>
				</port>
			</input>
			<output>
				<port id="1" precision="FP32">
					<dim>1</dim>
					<dim>1</dim>
					<dim>1</dim>
					<dim>1</dim>
				</port>
			</output>
		</layer>
		<layer id="74" name="Constant_1471" type="Const" version="opset1">
			<data element_type="i64" offset="786726" shape="2" size="16"/>
			<rt_info>
				<attribute name="fused_names" value="/Slice_2" version="0"/>
			</rt_info>
			<output>
				<port id="0" precision="I64">
					<dim>2</dim>
				</port>
			</output>
		</layer>
		<layer id="75" name="Constant_1474" type="Const" version="opset1">
			<data element_type="i64" offset="811528" shape="2" size="16"/>
			<rt_info>
				<attribute name="fused_names" value="/Slice_2" version="0"/>
			</rt_info>
			<output>
				<port id="0" precision="I64">
					<dim>2</dim>
				</port>
			</output>
		</layer>
		<layer id="76" name="Constant_1477" type="Const" version="opset1">
			<data element_type="i64" offset="786742" shape="2" size="16"/>
			<rt_info>
				<attribute name="fused_names" value="/Slice_2" version="0"/>
			</rt_info>
			<output>
				<port id="0" precision="I64">
					<dim>2</dim>
				</port>
			</output>
		</layer>
		<layer id="77" name="/Slice_2" type="StridedSlice" version="opset1">
			<data begin_mask="1, 0" ellipsis_mask="" end_mask="1, 0" new_axis_mask="" shrink_axis_mask=""/>
			<rt_info>
				<attribute name="fused_names" value="/Slice_2" version="0"/>
			</rt_info>
			<input>
				<port id="0" precision="FP32">
					<dim>1</dim>
					<dim>9</dim>
					<dim>96</dim>
					<dim>129</dim>
				</port>
				<port id="1" precision="I64">
					<dim>2</dim>
				</port>
				<port id="2" precision="I64">
					<dim>2</dim>
				</port>
				<port id="3" precision="I64">
					<dim>2</dim>
				</port>
			</input>
			<output>
				<port id="4" names="/Slice_2_output_0" precision="FP32">
					<dim>1</dim>
					<dim>1</dim>
					<dim>96</dim>
					<dim>129</dim>
				</port>
			</output>
		</layer>
		<layer id="78" name="/Sigmoid_1" type="Sigmoid" version="opset1">
			<rt_info>
				<attribute name="fused_names" value="/Sigmoid_1" version="0"/>
			</rt_info>
			<input>
				<port id="0" precision="FP32">
					<dim>1</dim>
					<dim>1</dim>
					<dim>96</dim>
					<dim>129</dim>
				</port>
			</input>
			<output>
				<port id="1" names="/Sigmoid_1_output_0" precision="FP32">
					<dim>1</dim>
					<dim>1</dim>
					<dim>96</dim>
					<dim>129</dim>
				</port>
			</output>
		</layer>
		<layer id="79" name="/Mul_1" type="Multiply" version="opset1">
			<data auto_broadcast="numpy"/>
			<rt_info>
				<attribute name="fused_names" value="/Mul_1, /Reciprocal_1" version="0"/>
			</rt_info>
			<input>
				<port id="0" precision="FP32">
					<dim>1</dim>
					<dim>1</dim>
					<dim>1</dim>
					<dim>1</dim>
				</port>
				<port id="1" precision="FP32">
					<dim>1</dim>
					<dim>1</dim>
					<dim>96</dim>
					<dim>129</dim>
				</port>
			</input>
			<output>
				<port id="2" names="/Mul_1_output_0" precision="FP32">
					<dim>1</dim>
					<dim>1</dim>
					<dim>96</dim>
					<dim>129</dim>
				</port>
			</output>
		</layer>
		<layer id="80" name="Constant_1570_compressed" type="Const" version="opset1">
			<data element_type="f16" offset="811544" shape="1, 1, 96, 129" size="24768"/>
			<output>
				<port id="0" precision="FP16">
					<dim>1</dim>
					<dim>1</dim>
					<dim>96</dim>
					<dim>129</dim>
				</port>
			</output>
		</layer>
		<layer id="81" name="Constant_1570" type="Convert" version="opset1">
			<data destination_type="f32"/>
			<rt_info>
				<attribute name="decompression" version="0"/>
			</rt_info>
			<input>
				<port id="0" precision="FP16">
					<dim>1</dim>
					<dim>1</dim>
					<dim>96</dim>
					<dim>129</dim>
				</port>
			</input>
			<output>
				<port id="1" precision="FP32">
					<dim>1</dim>
					<dim>1</dim>
					<dim>96</dim>
					<dim>129</dim>
				</port>
			</output>
		</layer>
		<layer id="82" name="/Add_1" type="Add" version="opset1">
			<data auto_broadcast="numpy"/>
			<rt_info>
				<attribute name="fused_names" value="/Add_1" version="0"/>
			</rt_info>
			<input>
				<port id="0" precision="FP32">
					<dim>1</dim>
					<dim>1</dim>
					<dim>96</dim>
					<dim>129</dim>
				</port>
				<port id="1" precision="FP32">
					<dim>1</dim>
					<dim>1</dim>
					<dim>96</dim>
					<dim>129</dim>
				</port>
			</input>
			<output>
				<port id="2" names="/Add_1_output_0" precision="FP32">
					<dim>1</dim>
					<dim>1</dim>
					<dim>96</dim>
					<dim>129</dim>
				</port>
			</output>
		</layer>
		<layer id="83" name="Constant_1571_compressed" type="Const" version="opset1">
			<data element_type="f16" offset="836312" shape="1, 1, 1, 1" size="2"/>
			<output>
				<port id="0" precision="FP16">
					<dim>1</dim>
					<dim>1</dim>
					<dim>1</dim>
					<dim>1</dim>
				</port>
			</output>
		</layer>
		<layer id="84" name="Constant_1571" type="Convert" version="opset1">
			<data destination_type="f32"/>
			<rt_info>
				<attribute name="decompression" version="0"/>
			</rt_info>
			<input>
				<port id="0" precision="FP16">
					<dim>1</dim>
					<dim>1</dim>
					<dim>1</dim>
					<dim>1</dim>
				</port>
			</input>
			<output>
				<port id="1" precision="FP32">
					<dim>1</dim>
					<dim>1</dim>
					<dim>1</dim>
					<dim>1</dim>
				</port>
			</output>
		</layer>
		<layer id="85" name="Constant_1483" type="Const" version="opset1">
			<data element_type="i64" offset="811528" shape="2" size="16"/>
			<rt_info>
				<attribute name="fused_names" value="/Slice_3" version="0"/>
			</rt_info>
			<output>
				<port id="0" precision="I64">
					<dim>2</dim>
				</port>
			</output>
		</layer>
		<layer id="86" name="Constant_1486" type="Const" version="opset1">
			<data element_type="i64" offset="836314" shape="2" size="16"/>
			<rt_info>
				<attribute name="fused_names" value="/Slice_3" version="0"/>
			</rt_info>
			<output>
				<port id="0" precision="I64">
					<dim>2</dim>
				</port>
			</output>
		</layer>
		<layer id="87" name="Constant_1489" type="Const" version="opset1">
			<data element_type="i64" offset="786742" shape="2" size="16"/>
			<rt_info>
				<attribute name="fused_names" value="/Slice_3" version="0"/>
			</rt_info>
			<output>
				<port id="0" precision="I64">
					<dim>2</dim>
				</port>
			</output>
		</layer>
		<layer id="88" name="/Slice_3" type="StridedSlice" version="opset1">
			<data begin_mask="1, 0" ellipsis_mask="" end_mask="1, 0" new_axis_mask="" shrink_axis_mask=""/>
			<rt_info>
				<attribute name="fused_names" value="/Slice_3" version="0"/>
			</rt_info>
			<input>
				<port id="0" precision="FP32">
					<dim>1</dim>
					<dim>9</dim>
					<dim>96</dim>
					<dim>129</dim>
				</port>
				<port id="1" precision="I64">
					<dim>2</dim>
				</port>
				<port id="2" precision="I64">
					<dim>2</dim>
				</port>
				<port id="3" precision="I64">
					<dim>2</dim>
				</port>
			</input>
			<output>
				<port id="4" names="/Slice_3_output_0" precision="FP32">
					<dim>1</dim>
					<dim>1</dim>
					<dim>96</dim>
					<dim>129</dim>
				</port>
			</output>
		</layer>
		<layer id="89" name="/Exp" type="Exp" version="opset1">
			<rt_info>
				<attribute name="fused_names" value="/Exp" version="0"/>
			</rt_info>
			<input>
				<port id="0" precision="FP32">
					<dim>1</dim>
					<dim>1</dim>
					<dim>96</dim>
					<dim>129</dim>
				</port>
			</input>
			<output>
				<port id="1" names="/Exp_output_0" precision="FP32">
					<dim>1</dim>
					<dim>1</dim>
					<dim>96</dim>
					<dim>129</dim>
				</port>
			</output>
		</layer>
		<layer id="90" name="/Mul_2" type="Multiply" version="opset1">
			<data auto_broadcast="numpy"/>
			<rt_info>
				<attribute name="fused_names" value="/Mul_2" version="0"/>
			</rt_info>
			<input>
				<port id="0" precision="FP32">
					<dim>1</dim>
					<dim>1</dim>
					<dim>1</dim>
					<dim>1</dim>
				</port>
				<port id="1" precision="FP32">
					<dim>1</dim>
					<dim>1</dim>
					<dim>96</dim>
					<dim>129</dim>
				</port>
			</input>
			<output>
				<port id="2" names="/Mul_2_output_0" precision="FP32">
					<dim>1</dim>
					<dim>1</dim>
					<dim>96</dim>
					<dim>129</dim>
				</port>
			</output>
		</layer>
		<layer id="91" name="Constant_1572_compressed" type="Const" version="opset1">
			<data element_type="f16" offset="836330" shape="1, 1, 1, 1" size="2"/>
			<output>
				<port id="0" precision="FP16">
					<dim>1</dim>
					<dim>1</dim>
					<dim>1</dim>
					<dim>1</dim>
				</port>
			</output>
		</layer>
		<layer id="92" name="Constant_1572" type="Convert" version="opset1">
			<data destination_type="f32"/>
			<rt_info>
				<attribute name="decompression" version="0"/>
			</rt_info>
			<input>
				<port id="0" precision="FP16">
					<dim>1</dim>
					<dim>1</dim>
					<dim>1</dim>
					<dim>1</dim>
				</port>
			</input>
			<output>
				<port id="1" precision="FP32">
					<dim>1</dim>
					<dim>1</dim>
					<dim>1</dim>
					<dim>1</dim>
				</port>
			</output>
		</layer>
		<layer id="93" name="Constant_1495" type="Const" version="opset1">
			<data element_type="i64" offset="836314" shape="2" size="16"/>
			<rt_info>
				<attribute name="fused_names" value="/Slice_4" version="0"/>
			</rt_info>
			<output>
				<port id="0" precision="I64">
					<dim>2</dim>
				</port>
			</output>
		</layer>
		<layer id="94" name="Constant_1498" type="Const" version="opset1">
			<data element_type="i64" offset="836332" shape="2" size="16"/>
			<rt_info>
				<attribute name="fused_names" value="/Slice_4" version="0"/>
			</rt_info>
			<output>
				<port id="0" precision="I64">
					<dim>2</dim>
				</port>
			</output>
		</layer>
		<layer id="95" name="Constant_1501" type="Const" version="opset1">
			<data element_type="i64" offset="786742" shape="2" size="16"/>
			<rt_info>
				<attribute name="fused_names" value="/Slice_4" version="0"/>
			</rt_info>
			<output>
				<port id="0" precision="I64">
					<dim>2</dim>
				</port>
			</output>
		</layer>
		<layer id="96" name="/Slice_4" type="StridedSlice" version="opset1">
			<data begin_mask="1, 0" ellipsis_mask="" end_mask="1, 0" new_axis_mask="" shrink_axis_mask=""/>
			<rt_info>
				<attribute name="fused_names" value="/Slice_4" version="0"/>
			</rt_info>
			<input>
				<port id="0" precision="FP32">
					<dim>1</dim>
					<dim>9</dim>
					<dim>96</dim>
					<dim>129</dim>
				</port>
				<port id="1" precision="I64">
					<dim>2</dim>
				</port>
				<port id="2" precision="I64">
					<dim>2</dim>
				</port>
				<port id="3" precision="I64">
					<dim>2</dim>
				</port>
			</input>
			<output>
				<port id="4" names="/Slice_4_output_0" precision="FP32">
					<dim>1</dim>
					<dim>1</dim>
					<dim>96</dim>
					<dim>129</dim>
				</port>
			</output>
		</layer>
		<layer id="97" name="/Exp_1" type="Exp" version="opset1">
			<rt_info>
				<attribute name="fused_names" value="/Exp_1" version="0"/>
			</rt_info>
			<input>
				<port id="0" precision="FP32">
					<dim>1</dim>
					<dim>1</dim>
					<dim>96</dim>
					<dim>129</dim>
				</port>
			</input>
			<output>
				<port id="1" names="/Exp_1_output_0" precision="FP32">
					<dim>1</dim>
					<dim>1</dim>
					<dim>96</dim>
					<dim>129</dim>
				</port>
			</output>
		</layer>
		<layer id="98" name="/Mul_3" type="Multiply" version="opset1">
			<data auto_broadcast="numpy"/>
			<rt_info>
				<attribute name="fused_names" value="/Mul_3" version="0"/>
			</rt_info>
			<input>
				<port id="0" precision="FP32">
					<dim>1</dim>
					<dim>1</dim>
					<dim>1</dim>
					<dim>1</dim>
				</port>
				<port id="1" precision="FP32">
					<dim>1</dim>
					<dim>1</dim>
					<dim>96</dim>
					<dim>129</dim>
				</port>
			</input>
			<output>
				<port id="2" names="/Mul_3_output_0" precision="FP32">
					<dim>1</dim>
					<dim>1</dim>
					<dim>96</dim>
					<dim>129</dim>
				</port>
			</output>
		</layer>
		<layer id="99" name="Constant_1507" type="Const" version="opset1">
			<data element_type="i64" offset="836332" shape="2" size="16"/>
			<rt_info>
				<attribute name="fused_names" value="/Slice_5" version="0"/>
			</rt_info>
			<output>
				<port id="0" precision="I64">
					<dim>2</dim>
				</port>
			</output>
		</layer>
		<layer id="100" name="Constant_1510" type="Const" version="opset1">
			<data element_type="i64" offset="836348" shape="2" size="16"/>
			<rt_info>
				<attribute name="fused_names" value="/Slice_5" version="0"/>
			</rt_info>
			<output>
				<port id="0" precision="I64">
					<dim>2</dim>
				</port>
			</output>
		</layer>
		<layer id="101" name="Constant_1513" type="Const" version="opset1">
			<data element_type="i64" offset="786742" shape="2" size="16"/>
			<rt_info>
				<attribute name="fused_names" value="/Slice_5" version="0"/>
			</rt_info>
			<output>
				<port id="0" precision="I64">
					<dim>2</dim>
				</port>
			</output>
		</layer>
		<layer id="102" name="/Slice_5" type="StridedSlice" version="opset1">
			<data begin_mask="1, 0" ellipsis_mask="" end_mask="1, 0" new_axis_mask="" shrink_axis_mask=""/>
			<rt_info>
				<attribute name="fused_names" value="/Slice_5" version="0"/>
			</rt_info>
			<input>
				<port id="0" precision="FP32">
					<dim>1</dim>
					<dim>9</dim>
					<dim>96</dim>
					<dim>129</dim>
				</port>
				<port id="1" precision="I64">
					<dim>2</dim>
				</port>
				<port id="2" precision="I64">
					<dim>2</dim>
				</port>
				<port id="3" precision="I64">
					<dim>2</dim>
				</port>
			</input>
			<output>
				<port id="4" names="/Slice_5_output_0" precision="FP32">
					<dim>1</dim>
					<dim>1</dim>
					<dim>96</dim>
					<dim>129</dim>
				</port>
			</output>
		</layer>
		<layer id="103" name="/Sigmoid_2" type="Sigmoid" version="opset1">
			<rt_info>
				<attribute name="fused_names" value="/Sigmoid_2" version="0"/>
			</rt_info>
			<input>
				<port id="0" precision="FP32">
					<dim>1</dim>
					<dim>1</dim>
					<dim>96</dim>
					<dim>129</dim>
				</port>
			</input>
			<output>
				<port id="1" names="/Sigmoid_2_output_0" precision="FP32">
					<dim>1</dim>
					<dim>1</dim>
					<dim>96</dim>
					<dim>129</dim>
				</port>
			</output>
		</layer>
		<layer id="104" name="Constant_1519" type="Const" version="opset1">
			<data element_type="i64" offset="836348" shape="2" size="16"/>
			<rt_info>
				<attribute name="fused_names" value="/Slice" version="0"/>
			</rt_info>
			<output>
				<port id="0" precision="I64">
					<dim>2</dim>
				</port>
			</output>
		</layer>
		<layer id="105" name="Constant_1522" type="Const" version="opset1">
			<data element_type="i64" offset="836364" shape="2" size="16"/>
			<rt_info>
				<attribute name="fused_names" value="/Slice" version="0"/>
			</rt_info>
			<output>
				<port id="0" precision="I64">
					<dim>2</dim>
				</port>
			</output>
		</layer>
		<layer id="106" name="Constant_1525" type="Const" version="opset1">
			<data element_type="i64" offset="786742" shape="2" size="16"/>
			<rt_info>
				<attribute name="fused_names" value="/Slice" version="0"/>
			</rt_info>
			<output>
				<port id="0" precision="I64">
					<dim>2</dim>
				</port>
			</output>
		</layer>
		<layer id="107" name="/Slice" type="StridedSlice" version="opset1">
			<data begin_mask="1, 0" ellipsis_mask="" end_mask="1, 0" new_axis_mask="" shrink_axis_mask=""/>
			<rt_info>
				<attribute name="fused_names" value="/Slice" version="0"/>
			</rt_info>
			<input>
				<port id="0" precision="FP32">
					<dim>1</dim>
					<dim>9</dim>
					<dim>96</dim>
					<dim>129</dim>
				</port>
				<port id="1" precision="I64">
					<dim>2</dim>
				</port>
				<port id="2" precision="I64">
					<dim>2</dim>
				</port>
				<port id="3" precision="I64">
					<dim>2</dim>
				</port>
			</input>
			<output>
				<port id="4" names="/Slice_output_0" precision="FP32">
					<dim>1</dim>
					<dim>4</dim>
					<dim>96</dim>
					<dim>129</dim>
				</port>
			</output>
		</layer>
		<layer id="108" name="/Softmax" type="SoftMax" version="opset8">
			<data axis="1"/>
			<rt_info>
				<attribute name="fused_names" value="/Softmax" version="0"/>
			</rt_info>
			<input>
				<port id="0" precision="FP32">
					<dim>1</dim>
					<dim>4</dim>
					<dim>96</dim>
					<dim>129</dim>
				</port>
			</input>
			<output>
				<port id="1" names="/Softmax_output_0" precision="FP32">
					<dim>1</dim>
					<dim>4</dim>
					<dim>96</dim>
					<dim>129</dim>
				</port>
			</output>
		</layer>
		<layer id="109" name="Constant_373" type="Const" version="opset1">
			<data element_type="i64" offset="836380" shape="" size="8"/>
			<rt_info>
				<attribute name="fused_names" value="Constant_373" version="0"/>
			</rt_info>
			<output>
				<port id="0" precision="I64"/>
			</output>
		</layer>
		<layer id="110" name="/Constant_28" type="Const" version="opset1">
			<data element_type="i64" offset="836388" shape="4" size="32"/>
			<rt_info>
				<attribute name="fused_names" value="/Constant_28" version="0"/>
			</rt_info>
			<output>
				<port id="0" names="/Constant_28_output_0" precision="I64">
					<dim>4</dim>
				</port>
			</output>
		</layer>
		<layer id="111" name="/Split" type="VariadicSplit" version="opset1">
			<rt_info>
				<attribute name="fused_names" value="/Split" version="0"/>
			</rt_info>
			<input>
				<port id="0" precision="FP32">
					<dim>1</dim>
					<dim>4</dim>
					<dim>96</dim>
					<dim>129</dim>
				</port>
				<port id="1" precision="I64"/>
				<port id="2" precision="I64">
					<dim>4</dim>
				</port>
			</input>
			<output>
				<port id="3" names="/Split_output_0" precision="FP32">
					<dim>1</dim>
					<dim>1</dim>
					<dim>96</dim>
					<dim>129</dim>
				</port>
				<port id="4" names="/Split_output_1" precision="FP32">
					<dim>1</dim>
					<dim>1</dim>
					<dim>96</dim>
					<dim>129</dim>
				</port>
				<port id="5" names="/Split_output_2" precision="FP32">
					<dim>1</dim>
					<dim>1</dim>
					<dim>96</dim>
					<dim>129</dim>
				</port>
				<port id="6" names="/Split_output_3" precision="FP32">
					<dim>1</dim>
					<dim>1</dim>
					<dim>96</dim>
					<dim>129</dim>
				</port>
			</output>
		</layer>
		<layer id="112" name="101" type="Concat" version="opset1">
			<data axis="1"/>
			<rt_info>
				<attribute name="fused_names" value="101" version="0"/>
			</rt_info>
			<input>
				<port id="0" precision="FP32">
					<dim>1</dim>
					<dim>1</dim>
					<dim>96</dim>
					<dim>129</dim>
				</port>
				<port id="1" precision="FP32">
					<dim>1</dim>
					<dim>1</dim>
					<dim>96</dim>
					<dim>129</dim>
				</port>
				<port id="2" precision="FP32">
					<dim>1</dim>
					<dim>1</dim>
					<dim>96</dim>
					<dim>129</dim>
				</port>
				<port id="3" precision="FP32">
					<dim>1</dim>
					<dim>1</dim>
					<dim>96</dim>
					<dim>129</dim>
				</port>
				<port id="4" precision="FP32">
					<dim>1</dim>
					<dim>1</dim>
					<dim>96</dim>
					<dim>129</dim>
				</port>
				<port id="5" precision="FP32">
					<dim>1</dim>
					<dim>1</dim>
					<dim>96</dim>
					<dim>129</dim>
				</port>
				<port id="6" precision="FP32">
					<dim>1</dim>
					<dim>1</dim>
					<dim>96</dim>
					<dim>129</dim>
				</port>
				<port id="7" precision="FP32">
					<dim>1</dim>
					<dim>1</dim>
					<dim>96</dim>
					<dim>129</dim>
				</port>
				<port id="8" precision="FP32">
					<dim>1</dim>
					<dim>1</dim>
					<dim>96</dim>
					<dim>129</dim>
				</port>
			</input>
			<output>
				<port id="9" names="101" precision="FP32">
					<dim>1</dim>
					<dim>9</dim>
					<dim>96</dim>
					<dim>129</dim>
				</port>
			</output>
		</layer>
		<layer id="113" name="101/sink_port_0" type="Result" version="opset1">
			<rt_info>
				<attribute name="fused_names" value="101/sink_port_0" version="0"/>
			</rt_info>
			<input>
				<port id="0" precision="FP32">
					<dim>1</dim>
					<dim>9</dim>
					<dim>96</dim>
					<dim>129</dim>
				</port>
			</input>
		</layer>
	</layers>
	<edges>
		<edge from-layer="0" from-port="0" to-layer="5" to-port="0"/>
		<edge from-layer="1" from-port="0" to-layer="2" to-port="0"/>
		<edge from-layer="2" from-port="1" to-layer="68" to-port="0"/>
		<edge from-layer="3" from-port="0" to-layer="4" to-port="0"/>
		<edge from-layer="4" from-port="1" to-layer="5" to-port="1"/>
		<edge from-layer="5" from-port="2" to-layer="8" to-port="0"/>
		<edge from-layer="6" from-port="0" to-layer="7" to-port="0"/>
		<edge from-layer="7" from-port="1" to-layer="8" to-port="1"/>
		<edge from-layer="8" from-port="2" to-layer="11" to-port="0"/>
		<edge from-layer="9" from-port="0" to-layer="10" to-port="0"/>
		<edge from-layer="10" from-port="1" to-layer="11" to-port="1"/>
		<edge from-layer="11" from-port="2" to-layer="12" to-port="0"/>
		<edge from-layer="12" from-port="1" to-layer="15" to-port="0"/>
		<edge from-layer="13" from-port="0" to-layer="14" to-port="0"/>
		<edge from-layer="14" from-port="1" to-layer="15" to-port="1"/>
		<edge from-layer="15" from-port="2" to-layer="18" to-port="0"/>
		<edge from-layer="16" from-port="0" to-layer="17" to-port="0"/>
		<edge from-layer="17" from-port="1" to-layer="18" to-port="1"/>
		<edge from-layer="18" from-port="2" to-layer="21" to-port="0"/>
		<edge from-layer="19" from-port="0" to-layer="20" to-port="0"/>
		<edge from-layer="20" from-port="1" to-layer="21" to-port="1"/>
		<edge from-layer="21" from-port="2" to-layer="22" to-port="0"/>
		<edge from-layer="22" from-port="1" to-layer="25" to-port="0"/>
		<edge from-layer="23" from-port="0" to-layer="24" to-port="0"/>
		<edge from-layer="24" from-port="1" to-layer="25" to-port="1"/>
		<edge from-layer="25" from-port="2" to-layer="28" to-port="0"/>
		<edge from-layer="26" from-port="0" to-layer="27" to-port="0"/>
		<edge from-layer="27" from-port="1" to-layer="28" to-port="1"/>
		<edge from-layer="28" from-port="2" to-layer="31" to-port="0"/>
		<edge from-layer="29" from-port="0" to-layer="30" to-port="0"/>
		<edge from-layer="30" from-port="1" to-layer="31" to-port="1"/>
		<edge from-layer="31" from-port="2" to-layer="32" to-port="0"/>
		<edge from-layer="32" from-port="1" to-layer="35" to-port="0"/>
		<edge from-layer="33" from-port="0" to-layer="34" to-port="0"/>
		<edge from-layer="34" from-port="1" to-layer="35" to-port="1"/>
		<edge from-layer="35" from-port="2" to-layer="38" to-port="0"/>
		<edge from-layer="36" from-port="0" to-layer="37" to-port="0"/>
		<edge from-layer="37" from-port="1" to-layer="38" to-port="1"/>
		<edge from-layer="38" from-port="2" to-layer="41" to-port="0"/>
		<edge from-layer="39" from-port="0" to-layer="40" to-port="0"/>
		<edge from-layer="40" from-port="1" to-layer="41" to-port="1"/>
		<edge from-layer="41" from-port="2" to-layer="44" to-port="0"/>
		<edge from-layer="42" from-port="0" to-layer="43" to-port="0"/>
		<edge from-layer="43" from-port="1" to-layer="44" to-port="1"/>
		<edge from-layer="44" from-port="2" to-layer="47" to-port="0"/>
		<edge from-layer="45" from-port="0" to-layer="46" to-port="0"/>
		<edge from-layer="46" from-port="1" to-layer="47" to-port="1"/>
		<edge from-layer="47" from-port="2" to-layer="50" to-port="0"/>
		<edge from-layer="48" from-port="0" to-layer="49" to-port="0"/>
		<edge from-layer="49" from-port="1" to-layer="50" to-port="1"/>
		<edge from-layer="50" from-port="2" to-layer="53" to-port="0"/>
		<edge from-layer="51" from-port="0" to-layer="52" to-port="0"/>
		<edge from-layer="52" from-port="1" to-layer="53" to-port="1"/>
		<edge from-layer="53" from-port="2" to-layer="56" to-port="0"/>
		<edge from-layer="54" from-port="0" to-layer="55" to-port="0"/>
		<edge from-layer="55" from-port="1" to-layer="56" to-port="1"/>
		<edge from-layer="56" from-port="2" to-layer="59" to-port="0"/>
		<edge from-layer="57" from-port="0" to-layer="58" to-port="0"/>
		<edge from-layer="58" from-port="1" to-layer="59" to-port="1"/>
		<edge from-layer="59" from-port="2" to-layer="62" to-port="0"/>
		<edge from-layer="60" from-port="0" to-layer="61" to-port="0"/>
		<edge from-layer="61" from-port="1" to-layer="62" to-port="1"/>
		<edge from-layer="62" from-port="2" to-layer="107" to-port="0"/>
		<edge from-layer="62" from-port="2" to-layer="102" to-port="0"/>
		<edge from-layer="62" from-port="2" to-layer="66" to-port="0"/>
		<edge from-layer="62" from-port="2" to-layer="96" to-port="0"/>
		<edge from-layer="62" from-port="2" to-layer="88" to-port="0"/>
		<edge from-layer="62" from-port="2" to-layer="77" to-port="0"/>
		<edge from-layer="63" from-port="0" to-layer="66" to-port="1"/>
		<edge from-layer="64" from-port="0" to-layer="66" to-port="2"/>
		<edge from-layer="65" from-port="0" to-layer="66" to-port="3"/>
		<edge from-layer="66" from-port="4" to-layer="67" to-port="0"/>
		<edge from-layer="67" from-port="1" to-layer="68" to-port="1"/>
		<edge from-layer="68" from-port="2" to-layer="71" to-port="0"/>
		<edge from-layer="69" from-port="0" to-layer="70" to-port="0"/>
		<edge from-layer="70" from-port="1" to-layer="71" to-port="1"/>
		<edge from-layer="71" from-port="2" to-layer="112" to-port="0"/>
		<edge from-layer="72" from-port="0" to-layer="73" to-port="0"/>
		<edge from-layer="73" from-port="1" to-layer="79" to-port="0"/>
		<edge from-layer="74" from-port="0" to-layer="77" to-port="1"/>
		<edge from-layer="75" from-port="0" to-layer="77" to-port="2"/>
		<edge from-layer="76" from-port="0" to-layer="77" to-port="3"/>
		<edge from-layer="77" from-port="4" to-layer="78" to-port="0"/>
		<edge from-layer="78" from-port="1" to-layer="79" to-port="1"/>
		<edge from-layer="79" from-port="2" to-layer="82" to-port="0"/>
		<edge from-layer="80" from-port="0" to-layer="81" to-port="0"/>
		<edge from-layer="81" from-port="1" to-layer="82" to-port="1"/>
		<edge from-layer="82" from-port="2" to-layer="112" to-port="1"/>
		<edge from-layer="83" from-port="0" to-layer="84" to-port="0"/>
		<edge from-layer="84" from-port="1" to-layer="90" to-port="0"/>
		<edge from-layer="85" from-port="0" to-layer="88" to-port="1"/>
		<edge from-layer="86" from-port="0" to-layer="88" to-port="2"/>
		<edge from-layer="87" from-port="0" to-layer="88" to-port="3"/>
		<edge from-layer="88" from-port="4" to-layer="89" to-port="0"/>
		<edge from-layer="89" from-port="1" to-layer="90" to-port="1"/>
		<edge from-layer="90" from-port="2" to-layer="112" to-port="2"/>
		<edge from-layer="91" from-port="0" to-layer="92" to-port="0"/>
		<edge from-layer="92" from-port="1" to-layer="98" to-port="0"/>
		<edge from-layer="93" from-port="0" to-layer="96" to-port="1"/>
		<edge from-layer="94" from-port="0" to-layer="96" to-port="2"/>
		<edge from-layer="95" from-port="0" to-layer="96" to-port="3"/>
		<edge from-layer="96" from-port="4" to-layer="97" to-port="0"/>
		<edge from-layer="97" from-port="1" to-layer="98" to-port="1"/>
		<edge from-layer="98" from-port="2" to-layer="112" to-port="3"/>
		<edge from-layer="99" from-port="0" to-layer="102" to-port="1"/>
		<edge from-layer="100" from-port="0" to-layer="102" to-port="2"/>
		<edge from-layer="101" from-port="0" to-layer="102" to-port="3"/>
		<edge from-layer="102" from-port="4" to-layer="103" to-port="0"/>
		<edge from-layer="103" from-port="1" to-layer="112" to-port="4"/>
		<edge from-layer="104" from-port="0" to-layer="107" to-port="1"/>
		<edge from-layer="105" from-port="0" to-layer="107" to-port="2"/>
		<edge from-layer="106" from-port="0" to-layer="107" to-port="3"/>
		<edge from-layer="107" from-port="4" to-layer="108" to-port="0"/>
		<edge from-layer="108" from-port="1" to-layer="111" to-port="0"/>
		<edge from-layer="109" from-port="0" to-layer="111" to-port="1"/>
		<edge from-layer="110" from-port="0" to-layer="111" to-port="2"/>
		<edge from-layer="111" from-port="3" to-layer="112" to-port="5"/>
		<edge from-layer="111" from-port="4" to-layer="112" to-port="6"/>
		<edge from-layer="111" from-port="5" to-layer="112" to-port="7"/>
		<edge from-layer="111" from-port="6" to-layer="112" to-port="8"/>
		<edge from-layer="112" from-port="9" to-layer="113" to-port="0"/>
	</edges>
	<meta_data>
		<MO_version value="2022.2.0-7713-af16ea1d79a-releases/2022/2"/>
		<Runtime_version value="2022.2.0-7713-af16ea1d79a-releases/2022/2"/>
		<legacy_path value="False"/>
		<cli_parameters>
			<caffe_parser_path value="DIR"/>
			<compress_fp16 value="True"/>
			<data_type value="FP32"/>
			<disable_nhwc_to_nchw value="False"/>
			<disable_omitting_optional value="False"/>
			<disable_resnet_optimization value="False"/>
			<disable_weights_compression value="False"/>
			<enable_concat_optimization value="False"/>
			<enable_flattening_nested_params value="False"/>
			<enable_ssd_gluoncv value="False"/>
			<extensions value="DIR"/>
			<framework value="onnx"/>
			<freeze_placeholder_with_value value="{}"/>
			<input_model value="DIR/best.onnx"/>
			<input_model_is_text value="False"/>
			<k value="DIR/CustomLayersMapping.xml"/>
			<layout value="()"/>
			<layout_values value="{}"/>
			<legacy_mxnet_model value="False"/>
			<log_level value="ERROR"/>
			<mean_scale_values value="{}"/>
			<mean_values value="()"/>
			<model_name value="best"/>
			<output_dir value="DIR"/>
			<placeholder_data_types value="{}"/>
			<progress value="False"/>
			<remove_memory value="False"/>
			<remove_output_softmax value="False"/>
			<reverse_input_channels value="False"/>
			<save_params_from_nd value="False"/>
			<scale_values value="()"/>
			<silent value="False"/>
			<source_layout value="()"/>
			<static_shape value="False"/>
			<stream_output value="False"/>
			<target_layout value="()"/>
			<transform value=""/>
			<use_legacy_frontend value="False"/>
			<use_new_frontend value="False"/>
			<unset unset_cli_parameters="batch, counts, disable_fusing, finegrain_fusing, input, input_checkpoint, input_meta_graph, input_proto, input_shape, input_symbol, mean_file, mean_file_offsets, nd_prefix_name, output, placeholder_shapes, pretrained_model_name, saved_model_dir, saved_model_tags, scale, tensorboard_logdir, tensorflow_custom_layer_libraries, tensorflow_custom_operations_config_update, tensorflow_object_detection_api_pipeline_config, tensorflow_use_custom_operations_config, transformations_config"/>
		</cli_parameters>
	</meta_data>
</net>
